lenet.pth (torch_old, 262699 bytes, 10 tensors)

weight f4 [6, 1, 5, 5]
-0.06969531 0.119912475 -0.04136169 -0.0104892375 0.07111718 0.1524107 0.0041777957 0.2059021
0.057375096 -0.06331397 0.11652995 0.19966936 -0.100190245 -0.17888808 -0.25022876 -0.19287577
0.13471521 0.17783009 0.15693752 0.113906406 -0.26819178 -0.16106401 0.10631267 0.28395388
0.093741946 -0.17952713 0.045859702 0.20065697 -0.071065724 -0.0568867 -0.37124836 0.075627886
0.18266836 0.28903186 0.0032108147 -0.45992997 -0.28896457 0.11967452 0.2500486 0.34693584
-0.50477976 -0.13918059 -0.061426725 0.365094 0.31999895 -0.51363343 -0.038265035 0.031752333
0.19707024 0.20750621 0.075549774 0.08796086 -0.13515612 -0.022183131 -0.16370735 0.048033573
0.17608747 -0.05559041 -0.40294206 -0.11970179 0.35409606 0.06581242 -0.21075876 -0.5209255
-0.29224598 0.3153707 0.23614013 0.27622977 -0.32357368 -0.4492405 -0.020904647 0.22490805
0.37078467 0.38280404 0.030659974 -0.1099558 -0.101891294 0.059577696 0.048518 0.2788848
0.11557487 0.008055029 0.32897818 0.06303572 -0.13633615 0.057827864 0.28108513 0.1816773
-0.14301604 -0.2202782 0.03154505 0.17873083 0.186829 0.118126184 -0.066520974 -0.09876045
0.032072324 0.09452841 -0.2171248 -0.4554614 0.20729613 0.14614129 0.4030577 0.43620566
0.1406348 0.28744924 0.27061504 0.18380347 0.32274 0.40966755 -0.12704208 -0.115347415
-0.105179295 -0.05369864 0.262136 -0.37620282 -0.3002113 -0.47365654 -0.42736262 -0.12068721
-0.044586904 -0.2591415 -0.4086835 -0.29466304 -0.11270773 0.04041245 -0.049349353 -0.4977606
-0.6300059 -0.45422724 0.077374265 -0.17502208 -0.21994404 -0.15482362 0.07309002 0.0018591749
0.10837381 0.22115791 0.042707466 0.40789407 0.26801926 0.28927112 0.19614446 0.28619856
0.18812862 0.060166992 0.07953925 0.084397346 -0.0052178157 0.07591245
00000000: 6abc 8ebd ac94 f53d e06a 29bd 0ddb 2bbc
00000010: e2a5 913d 8d11 1c3e e4e5 883b 00d8 523e
00000020: 2602 6b3d c1aa 81bd 41a7 ee3d 2076 4c3e
00000030: 8b30 cdbd 702e 37be fc1d 80be 3a81 45be
00000040: c9f2 093e 1719 363e 3bb4 203e c347 e93d
00000050: 6f50 89be f7ed 24be 75ba d93d 6762 913e
00000060: c7fb bf3d f6d5 37be 62d7 3b3d 0579 4d3e
00000070: e88a 91bd 0702 69bd 4414 bebe cbe2 9a3d
00000080: 6a0d 3b3e fcfb 933e 886c 523b f17b ebbe
00000090: 2af3 93be ea17 f53d 5f06 803e 93a1 b13e
000000a0: 3f39 01bf 5b85 0ebe 979a 7bbd 9aed ba3e
000000b0: e7d6 a33e 7b7d 03bf ccbb 1cbd bc0e 023d
000000c0: c8cc 493e 827c 543e d7b9 9a3d d324 b43d
000000d0: 5e66 0abe 66b9 b5bc e6a2 27be dabe 443d
000000e0: 4650 343e c5b2 63bd 6c4e cebe 3626 f5bd
000000f0: 144c b53e a9c8 863d 25d1 57be 605b 05bf
00000100: 44a1 95be 4578 a13e b8ce 713e fd6d 8d3e
00000110: 73ab a5be da02 e6be 3940 abbc 4c4e 663e
00000120: 7dd7 bd3e e4fe c33e a02a fb3c 8230 e1bd
00000130: 62ac d0bd be07 743d cfba 463d fdc9 8e3e
00000140: 84b2 ec3d 3ef9 033c d46f a83e df18 813d
00000150: b49b 0bbe e9dc 6c3d 64ea 8f3e 9d09 3a3e
00000160: cc72 12be 9c90 61be 6235 013d 3705 373e
00000170: 1a50 3f3e 24ec f13d 263c 88bd eb42 cabd
00000180: 455e 033d 1c98 c13d f755 5ebe 3d32 e9be
00000190: 7045 543e 10a6 153e 945d ce3e 5956 df3e
000001a0: 9202 103e 8c2c 933e 0e8e 8a3e fa36 3c3e
000001b0: 2d3e a53e f2bf d13e 5217 02be 443b ecbd
000001c0: 3e68 d7bd 1bf3 5bbd b136 863e a89d c0be
000001d0: 4cb5 99be 1c83 f2be 46cf dabe db2a f7bd
000001e0: c2a0 36bd 32ae 84be f73e d1be 13de 96be
000001f0: 4fd3 e6bd 8687 253d 8c22 4abd 7ada febe
00000200: 1148 21bf 7990 e8be 6676 9e3d fd38 33be
00000210: 0339 61be 158a 1ebe 38b0 953d 8faf f33a
00000220: 17f3 dd3d 3877 623e 06ee 2e3d 7ed7 d03e
00000230: d239 893e 581b 943e 18da 483e 9e88 923e
00000240: caa4 403e aa71 763d 79e5 a23d 84d8 ac3d
00000250: 36fa aabb fd77 9b3d

bias f4 [6]
-0.07985751 -0.01468412 0.07398113 -0.007825633 0.10112177 -0.006984298
00000000: 568c a3bd aa95 70bc 6b83 973d 1537 00bc
00000010: ee18 cf3d 8adc e4bb

weight f4 [16, 6, 5, 5]
-0.007840397 0.035692107 0.13995579 0.019339057 0.048252556 0.011286712 -0.14587496 -0.18132424
0.064821646 0.13528855 0.0010426423 -0.25677422 -0.5152588 -0.27732825 0.056357395 0.09924104
-0.25068536 -0.117343254 -0.23829314 -0.20906222 0.052811112 -0.03730059 -0.04004673 0.009899926
-0.15338638 0.00209871 -0.11856784 -0.049277507 0.08198754 0.14899261 -0.21108168 -0.2535783
0.024094889 0.2502542 0.22145209 -0.18691793 -0.5302021 -0.30994764 0.0008798794 -0.01701106
0.04164239 -0.030907644 -0.2631948 -0.2578312 -0.30542055 0.23296188 0.011498198 0.2645119
0.14365993 -0.006920224 -0.05361002 0.11416552 0.13664116 0.02263378 -0.1402486 0.13911134
0.044384975 -0.11504614 -0.07045794 0.01916079 0.2169404 0.10542429 0.041786514 -0.41063252
-0.20218724 0.11340981 0.13276003 0.12978607 -0.021357752 -0.19903411 0.095331036 0.071283475
0.047825802 0.13540202 0.0596476 0.1711138 0.11591758 0.0063784323 -0.076559275 0.03726657
-0.0029543287 -0.16507293 -0.29890758 -0.05884175 0.14625275 -0.062399097 -0.4040995 -0.55981076
-0.16229874 -0.01502391 0.06919078 -0.07892641 -0.42382964 -0.56855565 -0.43288416 0.0064439005
-0.025634736 -0.2328229 -0.12501575 -0.19171506 0.08126797 0.23198985 0.10459782 -0.057752278
-0.11262721 0.24934974 0.18242489 0.04951552 -0.018390683 0.09741356 -0.38541207 -0.122293726
0.21933208 0.26812458 0.3425793 -0.34531984 -0.57397765 -0.23692407 0.21294035 0.37736568
0.020353466 -0.08146842 -0.039072957 -0.65781224 -0.85059017 -0.10023628 -0.025154438 -0.09070803
0.054639492 0.16989343 -0.20333637 -0.44771972 -0.1862855 0.17270434 0.25766936 -0.06633164
-0.17194606 -0.66066015 -0.35839283 0.13895302 0.10271782 -0.073356494 -0.24850239 -0.4335392
-0.29150352 -0.1009436 -0.024675898 0.055221576 0.18030393 0.2388083 -0.07362109 -0.07414148
-0.0670769 -0.14257036 -0.11780045 -0.17928743 -0.16649412 -0.10606773 -0.16652508 -0.1568931
-0.08433381 -0.162082 -0.06635827 -0.08125704 -0.029839467 0.03102011 0.02610891 -0.05012201
0.12476904 0.17579624 0.119081736 0.15067714 0.13233687 0.12748636 0.02036033 -0.17864685
-0.010385651 -0.14811632 -0.12899372 -0.23753852 -0.25912726 -0.3414142 -0.34464604 -0.37702638
-0.40241796 -0.28371292 -0.19129126 -0.21006106 -0.06016291 -0.15221898 -0.12463993 0.025948226
0.06559481 0.125898 0.14633453 0.04071294 0.049397998 -0.0016491887 -0.043692064 -0.10307958
-0.05865598 -0.03377727 -0.0017854325 -0.2735666 -0.20136572 -0.045741934 -0.09035819 0.049361248
-0.052956283 -0.1948463 -0.18013926 -0.24816777 -0.050994426 0.13856952 0.3073468 -0.021664053
-0.08397129 -0.063074075 -0.010652629 0.17015897 0.109331094 0.03163113 0.1320175 -0.0046630073
0.04286494 0.031100033 -0.1400643 -0.03389411 0.09128348 0.07241188 -0.12666138 -0.16565299
-0.26862139 -0.3772938 -0.2342077 -0.184296 -0.02711139 -0.12436852 -0.1585394 -0.12998384
-0.0648055 -0.03979724 0.0501695 -0.046920598 0.16384324 0.16674991 0.071830615 -0.036263887
-0.08902142 0.06419108 0.16632824 0.06935213 0.13471305 0.12044623 0.058246534 0.24286509
00000000: 0275 00bc e331 123d 9250 0f3e f16c 9e3c
00000010: 79a4 453d e7eb 383c 3f60 15be 10ad 39be
00000020: 36c1 843d 1589 0a3e 45a9 883a e977 83be
00000030: 00e8 03bf f8fd 8dbe 03d7 663d e33e cb3d
00000040: d559 80be a951 f0bd 1e03 74be 6814 56be
00000050: 7750 583d 81c8 18bd 0a08 24bd 4d33 223c
00000060: 5211 1dbe 838a 093b b2d3 f2bd 36d7 49bd
00000070: 15e9 a73d 8591 183e cc25 58be 04d5 81be
00000080: a562 c53c 5221 803e 56c4 623e 6a67 3fbe
00000090: 53bb 07bf 75b1 9ebe b5a7 663a c75a 8bbc
000000a0: 3691 2a3d 0732 fdbc 78c1 86be 7302 84be
000000b0: 1560 9cbe 8f8d 6e3e f062 3c3c 1b6e 873e
000000c0: 971b 133e 0cc3 e2bb 2e96 5bbd 9dcf e93d
000000d0: a9eb 0b3e 7a6a b93c 549d 0fbe 3473 0e3e
000000e0: 05cd 353d 509d ebbd 414c 90bd 17f7 9c3c
000000f0: a025 5e3e b1e8 d73d 5628 2b3d 6d3e d2be
00000100: 2c0a 4fbe 6743 e83d 3ff2 073e a4e6 043e
00000110: 74f6 aebc 99cf 4bbe eb3c c33d 12fd 913d
00000120: fde4 433d d4a6 0a3e 0b51 743d 7538 2f3e
00000130: 3266 ed3d 2b02 d13b 1ccb 9cbd d5a4 183d
00000140: 699d 41bb e108 29be 6a0a 99be 0c04 71bd
00000150: 48c3 153e 3296 7fbd 21e6 cebe c24f 0fbf
00000160: a431 26be d926 76bc e5b3 8d3d 2ba4 a1bd
00000170: 3300 d9be dd8c 11bf fea2 ddbe 5b27 d33b
00000180: f0ff d1bc 2069 6ebe 2104 00be f450 44be
00000190: d26f a63d bf8e 6d3e 6237 d63d a78d 6cbd
000001a0: 18a9 e6bd 8a55 7f3e 97cd 3a3e c9d0 4a3d
000001b0: 0fa8 96bc c380 c73d bb54 c5be 2275 fabd
000001c0: 9798 603e a047 893e 8e66 af3e c3cd b0be
000001d0: 33f0 12bf 399c 72be 090d 5a3e 1336 c13e
000001e0: 50bc a63c ead8 a6bd f70a 20bd 6266 28bf
000001f0: 47c0 59bf ae48 cdbd ae10 cebc 22c5 b9bd
00000200: a9cd 5f3d 8bf8 2d3e 6937 50be 853b e5be
00000210: a0c1 3ebe 68d9 303e 3ded 833e e2d8 87bd
00000220: a112 30be 0621 29bf 447f b7be b349 0e3e
00000230: b85d d23d ee3b 96bd 6977 7ebe daf8 ddbe
00000240: f33f 95be 85bb cebd 1c25 cabc 0530 623d
00000250: 98a1 383e 2a8a 743e a7c6 96bd 7dd7 97bd
00000260: 9d5f 89bd f7fd 11be 5d41 f1bd 2097 37be
00000270: 6f7d 2abe 0a3a d9bd 8d85 2abe 96a8 20be
00000280: 34b7 acbd d3f8 25be d8e6 87bd 176a a6bd
00000290: e671 f4bc e31d fe3c 5ae2 d53c bd4c 4dbd
000002a0: e986 ff3d ee03 343e 20e1 f33d 1c4b 1a3e
000002b0: 5183 073e c98b 023e b5ca a63c 33ef 36be
000002c0: 9428 2abc ceab 17be ee16 04be 4c3d 73be
000002d0: 54ac 84be d8cd aebe 7275 b0be 9a09 c1be
000002e0: ba09 cebe d242 91be dbe1 43be 3f1a 57be
000002f0: 626d 76bd 4bdf 1bbe 3843 ffbd 6091 d43c
00000300: 9256 863d 68eb 003e b8d8 153e 9dc2 263d
00000310: 8e55 4a3d 9729 d8ba 73f6 32bd 631b d3bd
00000320: 4141 70bd 095a 0abd 2c05 eaba ec10 8cbe
00000330: d132 4ebe e55b 3bbd b70d b9bd 052f 4a3d
00000340: b0e8 58bd ca85 47be 6d76 38be b11f 7ebe
00000350: 88df 50bd 2be5 0d3e 8f5c 9d3e d078 b1bc
00000360: 24f9 abbd fb2c 81bd 5d88 2ebc 273e 2e3e
00000370: fbe8 df3d a58f 013d 982f 073e 24cc 98bb
00000380: 2693 2f3d 7fc5 fe3c 046d 0fbe 8dd4 0abd
00000390: d5f2 ba3d ae4c 943d 85b3 01be f0a0 29be
000003a0: be88 89be a72c c1be 25d4 6fbe 17b8 3cbe
000003b0: b518 debc ecb4 febd 2758 22be 7c1a 05be
000003c0: bfb8 84bd 6e02 23bd 897e 4d3d d02f 40bd
000003d0: 86c6 273e 7dc0 2a3e ee1b 933d 7189 14bd
000003e0: dd50 b6bd 9d76 833d f351 2a3e 7d08 8e3d
000003f0: 38f2 093e 83ac f63d eb93 6e3d a0b1 783e

bias f4 [16]
-0.021297267 -0.10180526 -0.18798 -0.103677385 -0.033160128 -0.016847683 0.05855742 0.029476598
-0.22851242 0.06706656 -0.22772491 -0.11422183 -0.042226423 -0.036770165 -0.08625369 -0.14447476
00000000: 9b77 aebc 477f d0bd d47d 40be cf54 d4bd
00000010: ead2 07bd 2704 8abc e8d9 6f3d e878 f13c
00000020: 29ff 69be 315a 893d b830 69be 23ed e9bd
00000030: 9df5 2cbd 509c 16bd c6a5 b0bd 31f1 13be

weight f4 [120, 400]
-0.17426483 -0.21728444 -0.06403427 0.112701245 -0.04761934 -0.16299483 -0.122118294 -0.15605016
0.095823824 0.000519309 -0.07667805 -0.12613194 -0.10899721 -0.04455591 -0.008914686 -0.045426615
-0.03082712 0.135981 0.017504217 -0.0046544154 -0.026685359 0.005410516 0.20842724 0.094901964
0.03074731 -0.20114921 -0.22257546 -0.21326074 0.032165423 -0.0097278785 -0.15365992 -0.13099337
0.02521708 0.06521285 0.150788 -0.28287286 0.020621834 0.11967815 -0.07319504 -0.10247587
-0.1179638 -0.11005893 -0.0740319 -0.09433079 -0.12783676 -0.033514973 -0.26645797 -0.3318191
-0.13161139 -0.0058579044 0.2322395 -0.03970039 -0.14910133 -0.026398174 -0.20715134 -0.019765021
-0.007629561 -0.0120863635 -0.036292 0.02127528 0.039154436 -0.019792786 0.063087 -0.016128952
-0.065795764 0.22909357 0.035097133 -0.031348146 -0.0146241095 0.044113997 -0.20773792 -0.0633377
0.04630822 0.1312359 0.14043725 -0.21263836 -0.07747948 0.07861419 0.18461147 0.112083554
-0.042222697 0.16088237 0.21458028 0.21865213 0.04031442 0.05404236 0.0149799585 -0.05589973
-0.0546881 0.06203975 0.024241546 -0.01440936 -0.05895794 -0.095396005 -0.16062269 0.023223683
0.0968815 -0.19641899 -0.1904034 -0.31023946 -0.22911651 -0.289461 -0.15466042 -0.01288814
0.13684972 -0.06822847 -0.044197574 0.0017051015 -0.0056745238 0.008839086 0.004061511 0.024613153
0.04091185 0.018597366 -0.04740312 0.021615406 0.007573274 -0.009046106 0.061207622 -0.081243284
0.08279863 -0.027836198 0.028471228 -0.041186154 -0.09632641 0.2801216 0.12838294 0.1186504
0.0036432077 0.1644336 0.026443442 -0.04838714 0.026274236 0.12426482 0.16520399 0.13833296
0.022220783 0.13097261 0.1127694 -0.018286917 0.04470783 -0.06381064 0.030700808 -0.02733675
0.07233927 -0.13164449 0.028065145 0.103460796 0.008246219 0.0593573 0.3010489 0.041270014
-0.2824967 -0.2693579 0.07129444 -0.04753897 -0.14494894 -0.13057666 -0.049750123 0.021580227
0.021247622 -0.07467674 0.15344597 -0.016890496 0.10973817 0.07959239 0.049144164 0.028595585
0.14296682 0.07602125 -0.0037207818 -0.09715494 0.059869025 0.10779328 -0.09376863 0.33536884
0.16961792 0.079614446 0.0999731 0.055658013 0.32464957 0.12172567 0.2444421 0.22219284
0.05515194 0.3903162 0.149307 0.068967834 0.07700342 -0.03726521 0.10016541 0.008199317
0.03682037 0.022207165 -0.08644701 -0.23608056 0.31912154 0.25505626 0.0058810688 -0.04128675
0.11462391 0.05578554 -0.1823906 -0.09875894 -0.16033724 0.035671484 -0.00894133 -0.06562291
-0.16233087 -0.2229354 0.07307181 0.05887863 0.085971124 -0.10347299 0.060750157 -0.025974631
0.08404187 0.13483956 -0.07978138 0.047319867 -0.09594713 0.016673615 0.15254806 0.1825398
-0.08185066 0.0921117 -0.029873509 -0.10767868 -0.16262096 -0.16302405 0.061722912 0.035735678
0.1273077 0.14936142 0.17700051 0.009424687 -0.0804504 0.029886624 0.09085137 0.08244173
-0.05805951 0.07910003 -0.058429286 -0.11374169 -0.13991705 -0.043825336 0.14192942 -0.08295183
0.14171977 -0.004439019 -0.09663726 -0.11122855 0.12630208 0.022179788 -0.06298833 -0.07562173
00000000: 7b72 32be d07f 5ebe 6624 83bd e9cf e63d
00000010: 7f0c 43bd 1ee8 26be 2819 fabd 9dcb 1fbe
00000020: 483f c43d 3d22 083a 6209 9dbd bb28 01be
00000030: ee39 dfbd 4280 36bd e70e 12bc 4211 3abd
00000040: 2889 fcbc 9a3e 0b3e 0165 8f3c 1184 98bb
00000050: 419b dabc b34a b13b f36d 553e f65b c23d
00000060: c8e1 fb3c 0ffa 4dbe d2ea 63be 0661 5abe
00000070: e4bf 033d ae61 1fbc 0759 1dbe 2023 06be
00000080: 0d94 ce3c 518e 853d 2b68 1a3e b6d4 90be
00000090: 1fef a83c d119 f53d 48e7 95bd dede d1bd
000000a0: 0197 f1bd 9466 e1bd 099e 97bd 8030 c1bd
000000b0: a4e7 02be ff46 09bd 2e6d 88be 31e4 a9be
000000c0: 23c5 06be aaf3 bfbb 31d0 6d3e e09c 22bd
000000d0: 05ae 18be fc40 d8bc 7b1f 54be 41ea a1bc
000000e0: 6501 fabb e205 46bc eca6 14bd 7f49 ae3c
000000f0: 6760 203d 7b24 a2bc c233 813d dd20 84bc
00000100: eebf 86bd 8197 6a3e 03c2 0f3d ea66 00bd
00000110: f699 6fbc e1b0 343d 40b9 54be 32b7 81bd
00000120: b0ad 3d3d b462 063e c8ce 0f3e dfbd 59be
00000130: 90ad 9ebd 7a00 a13d ca0a 3d3e 108c e53d
00000140: b5f1 2cbd 59be 243e efba 5b3e 58e6 5f3e
00000150: bc20 253d 865b 5d3d 806e 753c 1ef7 64bd
00000160: a100 60bd 651d 7e3d 3596 c63c 3c15 6cbc
00000170: e27d 71bd fb5e c3bd 467a 24be 983f be3c
00000180: cf69 c63d 0f22 49be 1cf9 42be b5d7 9ebe
00000190: 859d 6abe 3b34 94be 4d5f 1ebe c728 53bc
000001a0: 5522 0c3e 5ebb 8bbd 8408 35bd b67d df3a
000001b0: 5bf1 b9bb d0d1 103c 6c16 853b 86a1 c93c
000001c0: 2f93 273d 8159 983c c629 42bd cb12 b13c
000001d0: 3a29 f83b 1e36 14bc d8b4 7a3d e162 a6bd
000001e0: 5492 a93d bd08 e4bc 7e3c e93c d0b2 28bd
000001f0: c846 c5bd 196c 8f3e d176 033e fbfe f23d
00000200: e2c2 6e3b 4861 283e eb9f d83c 9831 46bd
00000210: 113d d73c 8e7e fe3d 3c2b 293e 28a7 0d3e
00000220: 5c08 b63c af1d 063e a5f3 e63d 72ce 95bc
00000230: 8f1f 373d 27af 82bd 4380 fb3c 52f1 dfbc
00000240: 9c26 943d d0cd 06be e0e8 e53c 41e3 d33d
00000250: 261b 073c a420 733d 1523 9a3e bf0a 293d
00000260: 68a3 90be 47e9 89be d202 923d 39b8 42bd
00000270: 7f6d 14be e3b5 05be c9c6 4bbd 04c9 b03c
00000280: 7e0f ae3c 1ef0 98bd f120 1d3e f05d 8abc
00000290: 68be e03d 5601 a33d 644b 493d 4a41 ea3c
000002a0: e565 123e 07b1 9b3d 5cd8 73bb 2bf9 c6bd
000002b0: 3939 753d b9c2 dc3d c409 c0bd 77b5 ab3e
000002c0: 52b0 2d3e e60c a33d b2be cc3d a8f9 633d
000002d0: 7838 a63e 4f4b f93d 084f 7a3e 8586 633e
000002e0: 00e7 613d 86d7 c73e efe3 183e 023f 8d3d
000002f0: f8b3 9d3d 68a3 18bd 8623 cd3d 6e56 063c
00000300: f5d0 163d cdeb b53c 210b b1bd 1abf 71be
00000310: e663 a33e bc96 823e fbb5 c03b 4c1c 29bd
00000320: f1bf ea3d 617f 643d 9ac4 3abe 2142 cabd
00000330: 722f 24be 431c 123d a87e 12bc 4e65 86bd
00000340: 103a 26be 2d49 64be aca6 953d b82a 713d
00000350: a111 b03d a6e9 d3bd 28d5 783d c0c8 d4bc
00000360: 251e ac3d 6213 0a3e 6c64 a3bd 7ad2 413d
00000370: ee7f c4bd 1b97 883c 8f35 1c3e b7eb 3a3e
00000380: 52a1 a7bd 0fa5 bc3d 4ab9 f4bc a486 dcbd
00000390: 1c86 26be c7ef 26be 2ad1 7c3d 935f 123d
000003a0: f35c 023e 33f2 183e 9f3f 353e 016a 1a3c
000003b0: 2ec3 a4bd cbd4 f43c 4810 ba3d 36d7 a83d
000003c0: cfcf 6dbd 32ff a13d 8c53 6fbd 67f1 e8bd
000003d0: 6a46 0fbe 3282 33bd f255 113e a6e2 a9bd
000003e0: fd1e 113e 3175 91bb c1e9 c5bd cbcb e3bd
000003f0: 5555 013e 63b2 b53c 0700 81bd 91df 9abd

bias f4 [120]
0.11755801 -0.0024690218 -0.05280414 0.015074387 -0.08972344 0.04809361 0.023073347 -0.06067581
-0.037365317 0.0026608554 -0.010271198 0.012303303 -0.10680098 -0.029586453 -0.10063506 0.096739784
-0.017597381 -0.032387715 -0.038291976 0.051456112 -0.057687536 -0.07727521 0.078826465 -0.011107289
-0.038039736 -0.0076355524 0.045127217 -0.0042784573 0.07152933 -0.07203716 -0.025644545 0.061727908
0.10071556 -0.03919449 -0.015905648 0.0043456815 -0.101466596 0.057959758 -0.21243039 -0.014033505
0.01836039 -0.11700129 -0.011077883 0.13450158 -0.027865568 -0.055560596 0.019959642 -0.00903139
-0.022877831 -0.034158427 0.032303747 -0.007465713 -0.047577735 -0.031254232 0.04101287 0.080120035
0.1280665 0.00279016 -0.036885303 -0.105661616 -0.06142602 -0.039367065 0.060485195 0.044436138
-0.0129384305 -0.039326344 0.12600628 0.01837582 -0.0431571 -0.019644925 0.033366874 0.061296523
0.0149460165 0.056602903 -0.022178786 0.035667334 -0.081529245 -0.011244406 0.0005604905 0.01521967
-0.059590522 -0.02475928 0.040037863 0.03646295 0.058143113 -0.07119874 0.04276925 0.019898536
0.039967123 0.051472384 -0.07863481 -0.10981025 -0.016735299 -0.15582612 -0.011021604 0.02777976
0.01474173 -0.05673767 0.06777519 0.032596163 0.014212458 0.023242436 0.09398355 -0.018988613
0.032608494 0.0028936635 0.09359457 0.06852584 -0.03568309 -0.0038219434 0.024243092 0.0038203716
0.014864644 0.056525156 -0.06609264 -0.103946716 0.014629 0.12782419 0.048559 -0.06446333
00000000: 41c2 f03d 50cf 21bb 2749 58bd 90fa 763c
00000010: ecc0 b7bd cefd 443d 5104 bd3c 3387 78bd
00000020: 600c 19bd bf61 2e3b 8748 28bc cb93 493c
00000030: 79ba dabd 4a5f f2bc c119 cebd 821f c63d
00000040: 6228 90bc fba8 04bd 0cd8 1cbd a5c3 523d
00000050: c449 6cbd 7742 9ebd c56f a13d 59fb 35bc
00000060: 8ecf 1bbd a833 fabb 51d7 383d 4d32 8cbb
00000070: f87d 923d 3888 93bd 8214 d2bc 67d6 7c3d
00000080: f643 ce3d 678a 20bd 904c 82bc 3866 8e3b
00000090: b8cd cfbd 3667 6d3d 5a87 59be c9ec 65bc
000000a0: 8768 963c 5f9e efbd 0280 35bc c8ba 093e
000000b0: 5546 e4bc 8293 63bd 6782 a33c 65f8 13bc
000000c0: 4a6a bbbc b5e9 0bbd ef50 043d f1a2 f4bb
000000d0: dfe0 42bd 7004 00bd 1cfd 273d f915 a43d
000000e0: dd23 033e 1edb 363b 0b15 17bd 1e65 d8bd
000000f0: da99 7bbd 5c3f 21bd 53bf 773d ab02 363d
00000100: b6fb 53bc a914 21bd ca07 013e e388 963c
00000110: 80c5 30bd 65ee a0bc b4ab 083d 1012 7b3d
00000120: 23e0 743c 72d8 673d 49b0 b5bc e917 123d
00000130: cef8 a6bd 753a 38bc e1ed 123a ec5b 793c
00000140: 3115 74bd f9d3 cabc befe 233d 2d5a 153d
00000150: 7927 6e3d a5d0 91bd cf2e 2f3d 4102 a33c
00000160: 91b4 233d b5d4 523d 4a0b a1bd 32e4 e0bd
00000170: 7718 89bc e290 1fbe f593 34bc 6192 e33c
00000180: 4c87 713c c265 68bd b8cd 8a3d 8e83 053d
00000190: 5fdb 683c ec66 be3c 737a c03d 028e 9bbc
000001a0: 7c90 053d 9ea3 3d3b 83ae bf3d 4757 8c3d
000001b0: 6f28 12bd 9279 7abb 7399 c63c 335f 7a3b
000001c0: d68a 733c ec86 673d 945b 87bd 04e2 d4bd
000001d0: 79ae 6f3c 58e4 023e cde5 463d 5a05 84bd

weight f4 [84, 120]
0.13163884 -0.19080201 -0.07516108 -0.098813616 -0.077919096 0.04074733 0.0056012003 -0.08279106
-0.062626034 -0.008536655 -0.09283483 0.0654409 -0.042961318 -0.04080923 -0.14659065 -0.23502086
-0.10301312 -0.048065197 -0.04712427 0.09504596 -0.00070430915 -0.062823616 0.0519614 -0.011929484
0.03101661 0.16119115 0.029358355 0.030426856 0.26877457 -0.12296849 0.08716727 0.18070383
0.14861147 0.016837543 -0.0400758 0.07390531 0.15279396 0.019187203 -0.014730366 -0.019416017
0.0063091964 0.07029826 0.05080215 -0.0047576944 -0.018070046 0.13908194 -0.0474198 0.059209514
0.15907355 0.050090116 0.10599536 -0.052892637 0.08754044 0.026469445 -0.18563527 -0.014914023
0.25835976 -0.031751752 -0.07221779 -0.017386364 -0.12998854 0.05020389 -0.22712971 -0.1394793
0.017049093 -0.007979828 -0.036576293 -0.04067134 0.012115835 -0.07498448 0.2916979 0.19511054
0.16667852 -0.006571103 0.037090372 0.07120525 -0.066765994 0.07136734 0.049657896 0.04695049
0.0021387234 0.076382704 0.013774714 -0.09046533 -0.010516739 -0.11511421 -0.08094983 -0.046485893
-0.022999141 0.14570308 0.054154478 -0.011255398 -0.030009694 -0.17315887 0.065517984 -0.07539612
-0.08571137 0.067747414 0.0026781955 -0.13343742 -0.0013668858 0.08291449 0.0045274026 -0.09416322
-0.017914554 0.1286983 0.07676897 0.02792513 -0.067346744 0.08752269 0.030504799 0.06889456
0.06320383 0.12533845 0.03396591 0.039893024 0.001043361 0.17086315 -0.06544116 -0.016608993
-0.11074315 0.015196103 0.035515703 0.040106144 0.07648192 -0.053166952 0.059967183 -0.06964927
0.011270189 0.049809147 0.014263334 0.119887024 -0.12619638 0.15396553 0.11114011 -0.16760485
-0.038591634 -0.03640907 -0.08075807 -0.041185178 -0.038545113 0.026998386 0.073605254 -0.013878405
0.027749665 0.094793275 -0.051066115 0.08480775 0.039801214 -0.022550767 0.0063510444 -0.053340282
0.007145744 0.07987195 -0.033629417 0.0963781 0.1279023 0.08435114 0.009719553 -0.13943426
0.06280587 0.006466606 0.020241804 -0.020147918 0.029324539 0.17120834 0.05377126 -0.038084164
0.077353306 0.12698361 0.034534574 -0.26025048 0.111627266 -0.057040215 0.06129229 -0.036804985
0.020744767 0.09641718 -0.0130972 0.033707924 -0.14131854 0.16371031 -0.27609527 -0.017507378
-0.08939053 -0.023448203 -0.13703184 0.08646973 -0.014516034 -0.087042 -0.11509691 0.18976268
0.22490771 -0.111829415 0.109138265 -0.02914843 0.1451368 0.23678222 0.038516365 0.077928975
0.014697954 -0.056439094 -0.09843362 -0.0006989429 -0.13023369 0.0083198445 -0.07588737 0.11747621
0.053874545 0.12134709 -0.1357268 -0.041558016 0.019230047 -0.023739126 -0.051332302 0.055739656
-0.0055249366 0.06846325 0.07596259 0.11354237 -0.093130805 -0.0019136595 -0.04311564 0.050804712
0.085623406 -0.07340757 0.121202916 0.08488798 0.0029616535 0.06001116 -0.13090235 0.12003164
0.06897395 0.03196988 0.12923002 0.08084669 -0.05958233 -0.18038364 -0.2232582 -0.014323367
-0.14023764 0.16927949 -0.0477236 -0.2020308 0.005319773 -0.12694871 0.013177067 0.027544795
0.02805698 0.043208044 0.12575157 0.033101026 0.0623055 -0.095073886 -0.0039308495 0.054430246
00000000: 55cc 063e 9a61 43be 0dee 99bd cb5e cabd
00000010: 0c94 9fbd ace6 263d 468a b73b 5c8e a9bd
00000020: 1442 80bd 54dd 0bbc 3020 bebd e105 863d
00000030: 35f8 2fbd 9427 27bd dc1b 16be 4fa9 70be
00000040: 8bf8 d2bd 03e0 44bd 6105 41bd 75a7 c23d
00000050: 63a1 38ba aba9 80bd 7ad5 543d e273 43bc
00000060: 8c16 fe3c 4b0f 253e ef80 f03c be41 f93c
00000070: d29c 893e e7d6 fbbd c184 b23d 6d0a 393e
00000080: 9b2d 183e e3ee 893c 8626 24bd ab5b 973d
00000090: 0576 1c3e 7b2e 9d3c a257 71bc 570e 9fbc
000000a0: 60bd ce3b 89f8 8f3d ea15 503d 6fe6 9bbb
000000b0: a207 94bc 7f6b 0e3e 443b 42bd ad85 723d
000000c0: 2de4 223e 4b2b 4d3d 1814 d93d f3a5 58bd
000000d0: 6748 b33d 73d6 d83c 2c17 3ebe f259 74bc
000000e0: bb47 843e 200e 02bd ece6 93bd d96d 8ebc
000000f0: b71b 05be 98a2 4d3d b194 68be a9d3 0ebe
00000100: 8aaa 8b3c d3bd 02bc 06d1 15bd fe96 26bd
00000110: 7f81 463c 7791 99bd 6d59 953e 0fcb 473e
00000120: c6ad 2a3e 6852 d7bb 13ec 173d 0fd4 913d
00000130: 9cbc 88bd 0a29 923d 1466 4b3d 284f 403d
00000140: d329 0c3b 896e 9c3d 57af 613c e345 b9bd
00000150: 674e 2cbc 00c1 ebbd 06c9 a5bd fe67 3ebd
00000160: b268 bcbc 3033 153e 16d1 5d3d 9068 38bc
00000170: e4d6 f5bc 8f50 31be 4b2e 863d 4869 9abd
00000180: 7189 afbd 28bf 8a3d aa84 2f3b d2a3 08be
00000190: 1429 b3ba 12cf a93d 9b5a 943b a5d8 c0bd
000001a0: 8bc1 92bc 7dc9 033e 0d39 9d3d 3ec3 e43c
000001b0: 17ed 89bd 193f b33d 33e5 f93c 9718 8d3d
000001c0: 0271 813d b958 003e d71f 0b3d de66 233d
000001d0: 63c1 883a c0f6 2e3e 0406 86bd 950f 88bc
000001e0: 4ecd e2bd 13f9 783c ea78 113d 5746 243d
000001f0: 8ea2 9c3d 97c5 59bd 26a0 753d 47a4 8ebd
00000200: 99a6 383c ad04 4c3d c2b0 693c 5487 f53d
00000210: a039 01be 24a9 1d3e 6d9d e33d 9ba0 2bbe
00000220: 4312 1ebd ad21 15bd 7d64 a5bd cab1 28bd
00000230: 7be1 1dbd b82b dd3c 5abe 963d 4062 63bc
00000240: 4453 e33c fa22 c23d b42a 51bd b0af ad3d
00000250: 9906 233d 63bc b8bc 6c1c d03b 577b 5abd
00000260: d826 ea3b e893 a33d 00bf 09bd e261 c53d
00000270: d2f8 023e 4ac0 ac3d c33e 1f3c dbc7 0ebe
00000280: 5da0 803d d3e5 d33b 24d2 a53c 3f0d a5bc
00000290: 043a f03c 3d51 2f3e 413f 5c3d 24fe 1bbd
000002a0: 696b 9e3d fe07 023e 2074 0d3d 8d3f 85be
000002b0: d69c e43d 00a3 69bd a00d 7b3d d3c0 16bd
000002c0: eef0 a93c 5f76 c53d a395 56bc 5211 0a3d
000002d0: cfb5 10be ada3 273e 5c5c 8dbe a26b 8fbc
000002e0: 6212 b7bd 7216 c0bc 1352 0cbe 0b17 b13d
000002f0: a9d4 6dbc 1343 b2bd eeb7 ebbd 2651 423e
00000300: 354e 663e d206 e5bd e283 df3d b0c8 eebc
00000310: be9e 143e 0a77 723e 56c3 1d3d 3a99 9f3d
00000320: b0cf 703c ae2c 67bd 9197 c9bd 4439 37ba
00000330: fb5b 05be f54f 083c d66a 9bbd 5e97 f03d
00000340: 8eab 5c3d d384 f83d f7fb 0abe bd38 2abd
00000350: 5588 9d3c 8e78 c2bc d241 52bd 444f 643d
00000360: 870a b5bb 7636 8c3d 4692 9b3d e788 e83d
00000370: 5dbb bebd c2d3 faba 069a 30bd 9a18 503d
00000380: 535b af3d b556 96bd 3c39 f83d c0d9 ad3d
00000390: 4d18 423b 43ce 753d 440b 06be 26d3 f53d
000003a0: 3742 8d3d d9f2 023d e054 043e f392 a53d
000003b0: 9a0c 74bd 7db6 38be cc9d 64be 8eac 6abc
000003c0: 759a 0fbe 9a57 2d3e d279 43bd 29e1 4ebe
000003d0: 7e51 ae3b d8fe 01be a0e4 573c 9fa5 e13c
000003e0: c0d7 e53c ebfa 303d 05c5 003e f194 073d
000003f0: 0d34 7f3d 19b6 c2bd 5bce 80bb 40f2 5e3d

bias f4 [84]
0.10783681 0.13893552 0.014999295 -0.050561786 0.10593998 0.08410961 0.15154213 0.051503092
0.15086344 0.11285929 0.14394623 0.13631451 0.052172426 -0.14775905 0.06905577 0.02357916
-0.009985785 -0.0054430673 0.03273081 0.10065714 0.06351589 0.055448018 0.10098783 -0.0039646546
-0.06667462 0.09230887 -0.056239657 0.017703785 0.20645212 0.19445716 0.19648391 0.11492624
0.060892876 0.22428723 0.049003724 0.03302172 0.13350411 0.08999153 0.17698209 0.15907946
0.18902425 0.11329879 -0.05110316 0.07996356 0.11178579 0.061941877 0.056843493 0.10208256
0.0041028713 0.12326825 0.06374268 0.091253996 0.2631799 0.13014151 -0.010626344 0.052025005
0.0944921 0.0051428447 0.025580078 0.027457321 0.08344816 0.12669756 0.09296129 0.060950257
0.14454156 0.011607371 0.062241077 0.23685732 0.09882474 0.004793563 0.22306105 0.07870391
0.12686527 0.087137856 0.19966818 0.06884986 0.1927666 0.10201208 0.09558357 0.1434787
-0.0647947 0.20708884 0.12070787 0.05131692
00000000: 8cd9 dc3d 1d45 0e3e 9abf 753c e019 4fbd
00000010: 0ff7 d83d a941 ac3d dc2d 1b3e e8f4 523d
00000020: f27b 1a3e c522 e73d a466 133e 0896 0b3e
00000030: c1b2 553d 264e 17be 1d6d 8d3d 1529 c13c
00000040: 6b9b 23bc c25b b2bb be10 063d 5525 ce3d
00000050: 9e14 823d 761d 633d b5d2 ce3d efe9 81bb
00000060: b48c 88bd 6f0c bd3d 8e5b 66bd 8707 913c
00000070: 2f68 533e c71f 473e 1433 493e 735e eb3d
00000080: cf6a 793d 8dab 653e 21b8 483d c841 073d
00000090: 4db5 083e 7b4d b83d cb3a 353e bae5 223e
000000a0: 938f 413e 3209 e83d 8c51 51bd efc3 a33d
000000b0: f3ef e43d c4b6 7d3d b9d4 683d a910 d13d
000000c0: 6171 863b 1074 fc3d 868b 823d 60e3 ba3d
000000d0: 84bf 863e d143 053e 1e1a 2ebc 2c18 553d
000000e0: 1385 c13d 4f85 a83b 508d d13c 2dee e03c
000000f0: dee6 aa3d 01bd 013e 7d62 be3d faa6 793d
00000100: b402 143e d82c 3e3c 80f0 7e3d ba8a 723e
00000110: a064 ca3d 5213 9d3b 1e6a 643e 842f a13d
00000120: f8e8 013e 5575 b23d d175 4c3e 2801 8d3d
00000130: 9c64 453e b6eb d03d 52c1 c33d 15ec 123e
00000140: 15b3 84bd 190f 543e b035 f73d b131 523d

weight f4 [10, 84]
0.11099226 -0.19085938 -0.2108002 -0.10620624 -0.017803796 -0.04559684 0.02633266 -0.10639539
0.13088436 -0.03606129 -0.023455136 0.16961545 -0.028463418 -0.36562222 -0.010455541 -0.36922047
0.11938528 0.017587567 -0.14011173 0.1626055 -0.12988845 -0.16026199 -0.008562653 0.25483203
0.09797827 -0.29683235 0.097609624 0.16458558 -0.27853635 0.075768985 0.19539675 -0.010233474
0.1413033 0.12103819 -0.07694547 0.04482001 -0.026202064 0.028093826 -0.02272113 0.08274037
0.039676316 -0.23318328 0.01923292 0.08662674 0.10535291 -0.04086645 -0.07328455 -0.16702051
-0.026402088 -0.08229491 0.16867279 -0.21350546 0.20143804 -0.14517206 -0.21377605 -0.29617378
-0.14632438 -0.15481335 0.061018057 -0.083521776 -0.22239332 0.14160413 0.11167408 0.0035507886
0.055513054 -0.14409067 -0.022336937 0.04052205 -0.022486275 -0.18976164 0.18742965 -0.13247836
0.09623929 -0.10117137 -0.11581345 -0.18448758 -0.0058036875 -0.18857376 -0.192558 -0.026594978
0.15412372 0.15622903 -0.16969147 -0.08025679 0.01476436 -0.21984667 0.075493515 -0.27422267
0.07459609 -0.024041632 0.0471458 0.0047707898 -0.2097423 0.02142879 0.15175061 -0.117756456
-0.046609286 -0.40137717 -0.25122803 -0.0895081 -0.15475364 -0.1477337 -0.2439049 -0.0074127833
-0.10772108 -0.0757967 0.16413623 -0.25136706 0.0053632874 0.22058515 -0.04483401 -0.20226392
0.054789767 -0.5221808 -0.093885526 0.16976716 -0.20961681 0.1699187 -0.060727462 -0.06252849
0.009072036 -0.01350714 0.14178635 -0.04015579 0.10035857 -0.2241055 -0.00962892 -0.13156246
-0.29718757 -0.009423225 -0.18207139 0.074510746 0.0075247926 -0.25745094 0.117790654 -0.01736832
0.17876352 0.13936435 -0.21050325 0.101852894 0.06421411 -0.0059873024 -0.26652285 -0.08195422
0.1860794 -0.16146706 -0.23435216 0.05050132 0.14341122 0.016814288 -0.47002128 0.250553
0.04862172 -0.13769546 -0.19466855 -0.082303874 0.14942215 0.11872228 0.15457898 0.05728503
0.14185019 0.035085108 -0.069568634 0.07474608 -0.035193417 0.1863061 0.19315715 -0.089433245
-0.21927507 -0.042314008 0.039095715 -0.029779416 -0.12331528 0.08265554 -0.08929679 -0.009268815
0.16523129 0.23822656 -0.058202196 -0.060755413 0.09495822 -0.16243821 -0.026359154 0.22000355
-0.024350733 0.09786369 -0.13751654 -0.07934743 0.23059583 -0.18635337 0.028407814 -0.015472879
-0.15038303 0.061291564 -0.1376362 -0.051129784 0.0634096 -0.24947971 -0.17497012 0.10067989
-0.060785595 0.11471752 -0.106706336 0.10495548 -0.13228475 0.22543067 0.068355724 -0.12702392
0.11720779 0.0065859435 -0.21497412 0.11408028 0.19151531 -0.007254356 -0.08187454 -0.1568456
0.12374563 0.06728064 0.08022201 -0.19123852 -0.33444244 -0.16217065 -0.19090736 0.07542155
-0.0148448385 0.14924274 -0.15123636 -0.16707437 -0.26201627 -0.15176596 -0.074950434 0.13933416
-0.13678975 0.16563004 -0.08578535 -0.17918128 0.059502546 -0.029281395 0.10727962 0.16982505
0.09806315 0.033179797 -0.23613109 -0.05797679 0.01950534 0.10517409 0.20121388 0.2215404
0.044094615 0.14242385 -0.122496955 -0.1661539 -0.14450866 0.086553015 0.0008381886 -0.13276859
00000000: e94f e33d a470 43be 02dc 57be a882 d9bd
00000010: 44d9 91bc c1c3 3abd 97b7 d73c d4e5 d9bd
00000020: 8d06 063e 01b5 13bd fc24 c0bc acaf 2d3e
00000030: 1d2c e9bc d632 bbbe b84d 2bbc 770a bdbe
00000040: 4580 f43d cd13 903c 7379 0fbe 0e82 263e
00000050: 7a01 05be b81b 24be 5f4a 0cbc 5879 823e
00000060: d5a8 c83d 69fa 97be 8ee7 c73d 1f89 283e
00000070: 519c 8ebe c52c 9b3d 1616 483e 4daa 27bc
00000080: d0b1 103e dfe2 f73d 9695 9dbd 3095 373d
00000090: b6a5 d6bc 0625 e63c aa21 babc c873 a93d
000000a0: a283 223d 99c7 6ebe 5b8e 9d3c 5c69 b13d
000000b0: 44c3 d73d 9463 27bd 3616 96bd 6d07 2bbe
000000c0: 3149 d8bc 3c8a a8bd 8fb8 2c3e 2da1 5abe
000000d0: c645 4e3e fca7 14be 1ce8 5abe 17a4 97be
000000e0: 0fd6 15be 6487 1ebe 12ee 793d 770d abbd
000000f0: 13bb 63be ac00 113e 61b5 e43d 59b4 683b
00000100: a861 633d 818c 13be f4fb b6bc 73fa 253d
00000110: 2335 b8bc e050 42be 8fed 3f3e 68a8 07be
00000120: 1b19 c53d ef32 cfbd 9a2f edbd 50ea 3cbe
00000130: dc2c bebb 7b19 41be ed2d 45be b6dd d9bc
00000140: 9cd2 1d3e 81fa 1f3e 9ac3 2dbe ac5d a4bd
00000150: 37e6 713c 7c1f 61be 589c 9a3d ea66 8cbe
00000160: d6c5 983d f5f2 c4bc f41b 413d 4954 9c3b
00000170: afc6 56be 6e8b af3c 8364 1b3e 4c2a f1bd
00000180: 61e9 3ebd 4f81 cdbe f6a0 80be 0650 b7bd
00000190: bd77 1ebe 8147 17be 35c2 79be efe6 f2bb
000001a0: df9c dcbd 4d3b 9bbd 5413 283e 2fb3 80be
000001b0: 84be af3b 13e1 613e dea3 37bd 461e 4fbe
000001c0: 3c6b 603d a4ad 05bf 0e47 c0bd 71d7 2d3e
000001d0: caa5 56be 2bff 2d3e 5cbd 78bd f00e 80bd
000001e0: e0a2 143c 0d4d 5dbc 7130 113e 667a 24bd
000001f0: cb88 cd3d ea7b 65be 9ec2 1dbc 4fb8 06be
00000200: f828 98be df63 1abc ec70 3abe 1799 983d
00000210: 8992 f63b 9cd0 83be 3a3c f13d 0248 8ebc
00000220: c90d 373e 87b5 0e3e 2a8e 57be 4098 d03d
00000230: b082 833d 2231 c4bb af75 88be 9dd7 a7bd
00000240: 998b 3e3e 9f57 25be 03fa 6fbe 79da 4e3d
00000250: 64da 123e 1ebe 893c a1a6 f0be 7c48 803e
00000260: 9227 473d 0a00 0dbe 3157 47be ef8e a8bd
00000270: 1f02 193e ab24 f33d f449 1e3e b5a3 6a3d
00000280: 2d41 113e 67b5 0f3d 007a 8ebd 7914 993d
00000290: f926 10bd 07c7 3e3e fdca 453e c728 b7bd
000002a0: a589 60be 7451 2dbd d422 203d f6f3 f3bc
000002b0: b98c fcbd 4f47 a93d 3ce1 b6bd 3adc 17bc
000002c0: 6432 293e aaf1 733e 6d65 6ebd abda 78bd
000002d0: 7579 c23d 3456 26be 27ef d7bc 9c48 613e
000002e0: 307b c7bc c26c c83d 23d1 0cbe e880 a2bd
000002f0: 5021 6c3e 6bd3 3ebe 81b7 e83c f581 7dbc
00000300: 02fe 19be dd0c 7b3d 81f0 0cbe 776d 51bd
00000310: e4dc 813d 9c77 7fbe 5e2b 33be 4231 ce3d
00000320: 51fa 78bd 05f1 ea3d da88 dabd e6f2 d63d
00000330: a775 07be 4cd7 663e 16fe 8b3d 8f12 02be
00000340: a30a f03d e6ce d73b 2d22 5cbe eca2 e93d
00000350: 971c 443e f3b5 edbb d7ad a7bd 229c 20be
00000360: 596e fd3d 6fca 893d 704b a43d 08d4 43be
00000370: 0a3c abbe 1010 26be 387d 43be 9d76 9a3d
00000380: c437 73bc 17d3 183e b4dd 1abe 8b15 2bbe
00000390: ff26 86be 8968 1bbe 9d7f 99bd 9dad 0e3e
000003a0: 9d12 0cbe ec9a 293e 3bb0 afbd 4c7b 37be
000003b0: f1b8 733d 89df efbc 6bb5 db3d 9ee6 2d3e
000003c0: 55d5 c83d 8ae7 073d 59cc 71be 1279 6dbd
000003d0: aac9 9f3c 8365 d73d 030b 4e3e 7ddb 623e
000003e0: 8e9c 343d 8fd7 113e afdf fabd 3f24 2abe
000003f0: 14fa 13be b542 b13d e2b9 5b3a 7df4 07be

bias f4 [10]
-0.03968498 0.03611902 -0.07980663 -0.03692221 0.083376534 -0.12756145 -0.051824033 0.0765115
0.041554343 -0.12265147
00000000: b88c 22bd 8af1 133d a971 a3bd be3b 17bd
00000010: 51c1 aa3d 789f 02be 7045 54bd 10b2 9c3d
00000020: e334 2a3d b230 fbbd
