lenet_train.pth (torch_old, 263001 bytes, 10 tensors)

weight f4 [6, 1, 5, 5]
0	0x3d057ea9	0.032591496
1	0x3eb280d4	0.34863913
2	0x3d303777	0.043021645
3	0x3e8e5941	0.2780247
4	0x3e166573	0.14687137
5	0xbe6ab811	-0.22921778
6	0xbe0c590c	-0.13705844
7	0x3e647c95	0.2231315
8	0x3e0a679b	0.13516085
9	0x3e304535	0.172139
10	0xbe719d88	-0.2359525
11	0xbe3ae3c1	-0.18250944
12	0x3c14821a	0.009064222
13	0x3d795dc4	0.060880437
14	0x3c803676	0.015650969
15	0xbe5f93ba	-0.21833697
16	0xbd20cf3d	-0.039260138
17	0x3e8f3df0	0.27976942
18	0x3e3dc634	0.1853264
19	0x3e01fa1b	0.12693064
20	0x3dcee50b	0.1010228
21	0x3c4ce6f4	0.012506235
22	0x3d700caa	0.058605827
23	0x3d500be1	0.05079258
24	0xbe15bb35	-0.14622195
25	0x3d626802	0.05527497
26	0xbe939437	-0.28824016
27	0xbe60de4e	-0.21959803
28	0xbd73fd19	-0.059567545
29	0xbef80112	-0.48438317
30	0xbd503d17	-0.05083951
31	0xbe25c7fa	-0.16189566
32	0x3d304c15	0.043041307
33	0xbe596d6d	-0.21233149
34	0xbe96afca	-0.2943099
35	0x3e5be1e1	0.21472885
36	0x3d1d607a	0.038422085
37	0x3e8d5877	0.27606556
38	0x3e7472b8	0.23871887
39	0xbda181ff	-0.07886123
40	0x3ede3f9a	0.434079
41	0x3e5ad4cd	0.2137024
42	0x3cf77fc3	0.030212289
43	0x3ec6d84a	0.3883689
44	0x3e883739	0.26604632
45	0x3de0b4b5	0.10971967
46	0x3ddfbf14	0.10925117
47	0x3d79667c	0.060888752
48	0x3e24958a	0.1607267
49	0x3e5f7b8c	0.21824473
50	0x3d3317a0	0.043723702
51	0x3e8bbe4e	0.27293628
52	0x3e70b6ad	0.23507185
53	0x3ea52ee0	0.32262325
54	0x3ec12d8c	0.37730062
55	0xbf08820a	-0.53323424
56	0xbe3f4dfb	-0.18682091
57	0x3d05ff49	0.032714162
58	0x3e4a0341	0.19727804
59	0x3e7b5ebb	0.24547856
60	0xbec81d9d	-0.39085093
61	0xbf4c99f9	-0.79922444
62	0xbef34686	-0.47514743
63	0xbeeaa899	-0.45831755
64	0xbe169561	-0.14705421
65	0x3e53af6b	0.20672385
66	0xbe8fe745	-0.28106132
67	0xbf161ef3	-0.58640975
68	0xbec601a2	-0.3867312
69	0xbeb85868	-0.3600495
70	0x3ee53c31	0.44772485
71	0x3e3e7999	0.18601073
72	0x3d273a15	0.040826876
73	0xbc40e5c8	-0.011773534
74	0xbb348790	-0.0027546622
75	0xbd71a488	-0.0589948
76	0x3d86b0bb	0.065766774
77	0x3e9382e6	0.28810805
78	0xbe6ebf02	-0.23315051
79	0xbe0e8caf	-0.13920854
80	0xbde5e967	-0.112261586
81	0x3e99a968	0.3001206
82	0x3ea550df	0.32288262
83	0xbe1c7288	-0.15278065
84	0xbe100cb1	-0.14067341
85	0x3d516de6	0.051130198
86	0xbe319e59	-0.17345561
87	0xbcef80a0	-0.029236138
88	0x3e1f94ac	0.15584058
89	0xbda76333	-0.081732176
90	0xbeaa19cb	-0.33222803
91	0x3d04dc4c	0.032436654
92	0x3ac0342d	0.0014663987
93	0x3e8f53ab	0.2799352
94	0x3e862452	0.26199585
95	0x3e0cc230	0.13745952
96	0x3dc66920	0.0968802
97	0x3da06609	0.07831962
98	0x3dd0ee87	0.102017455
99	0xbccfb09f	-0.025352774
100	0x3d4afe03	0.04955865
101	0x3d79a418	0.060947508
102	0xbe6534c3	-0.22383408
103	0xbe8051d4	-0.2506243
104	0xbde76f27	-0.113004975
105	0xbe16ff90	-0.14745927
106	0xbedd1402	-0.43179327
107	0xbe8f3d9e	-0.27976698
108	0xbec80ab9	-0.3907068
109	0xbde34e53	-0.110989235
110	0xbe0e6d4c	-0.13908881
111	0xbdaf4b59	-0.08559293
112	0xbe81d1b3	-0.253553
113	0x3e8cc0ad	0.2749075
114	0x3eaa5bea	0.3327325
115	0x3cf93f71	0.030425759
116	0x3e409d06	0.188099
117	0x3e047cc0	0.12938213
118	0x3dc7ccc9	0.097558565
119	0x3dd82816	0.10554521
120	0x3ec19f07	0.3781664
121	0x3dd0653f	0.10175561
122	0x3ea9107b	0.33020386
123	0x3ea756db	0.32683453
124	0xbcd5fdf1	-0.026122065
125	0x3d613aad	0.0549876
126	0xbeb7b979	-0.35883692
127	0xbe50d98c	-0.20395488
128	0xbe0382ba	-0.12842837
129	0x3db52a49	0.08845956
130	0xbdd70ead	-0.10500846
131	0xbeb7cb39	-0.35897234
132	0xbe579c19	-0.2105564
133	0x3e0502aa	0.12989298
134	0x3e5cdaf1	0.21567895
135	0xbf0aa708	-0.5416112
136	0xbedc4df8	-0.43028235
137	0x3e323a29	0.17404999
138	0x3ca0a3de	0.019609388
139	0x3e14e832	0.145417
140	0xbe2d0bbd	-0.16899009
141	0xbe5aa1c9	-0.21350779
142	0x3dd0dc23	0.10198238
143	0x3ebc0582	0.36722952
144	0x3eafad40	0.34311867
145	0xbea6cf84	-0.32580197
146	0x3d486fdd	0.048934806
147	0x3d06d609	0.032918964
148	0x3e4aea76	0.19816002
149	0x3e56bb05	0.2096978

bias f4 [6]
0	0xbc5cba42	-0.013472142
1	0xbb5dc089	-0.0033836684
2	0x3e608462	0.219255
3	0xbbf8976f	-0.0075864117
4	0x3e339862	0.17538598
5	0xbbbd9847	-0.005785975

weight f4 [16, 6, 5, 5]
0	0xbb89e2e6	-0.0042079566
1	0xbd2af810	-0.041740477
2	0x3aac1d09	0.0013131212
3	0x3d21b6a0	0.039480805
4	0x3ca50aab	0.020146688
5	0xbda31c32	-0.07964362
6	0x3dd60462	0.10450055
7	0x3e23da98	0.16001356
8	0x3d2eaeae	0.042647056
9	0x3d9be951	0.07612861
10	0xbd3b23ab	-0.045688313
11	0xbd3afb38	-0.045649737
12	0x3d5b0f12	0.05348117
13	0xbd705e11	-0.05868346
14	0xbde90a1c	-0.11378881
15	0x3d95ea76	0.073201105
16	0xba24e0eb	-0.0006289619
17	0x3aca96a7	0.0015456275
18	0xbaa67232	-0.0012698828
19	0xbd025edf	-0.031828757
20	0xbd8db881	-0.06919957
21	0xbe01315a	-0.12616482
22	0xbe7281d1	-0.23682334
23	0xbe81cf14	-0.253533
24	0xbe329716	-0.17440447
25	0xbd0b9414	-0.034076765
26	0xbddcc185	-0.107790984
27	0xbd762bf4	-0.06010051
28	0x3cc90e14	0.024542846
29	0x3ae0cb82	0.0017150494
30	0x3d9508a6	0.0727704
31	0x3e534b9f	0.20634316
32	0x3e4a7cf5	0.1977423
33	0x3e704a6f	0.23465894
34	0x3e11207f	0.14172553
35	0x3e28c84e	0.1648266
36	0x3e08741e	0.13325545
37	0xbdbd4c0e	-0.09243022
38	0xbe79b9cd	-0.24387284
39	0xbe6e838e	-0.23292372
40	0xbe24741a	-0.16059914
41	0xbe7e4943	-0.24832635
42	0xbeaea469	-0.3410981
43	0xbea73e75	-0.32664838
44	0xbe89422f	-0.26808307
45	0xbdb49723	-0.088178895
46	0x39bb5fa9	0.00035738692
47	0x3e201b8c	0.15635508
48	0x3da38b68	0.07985574
49	0xbc2c0dbb	-0.0105013205
50	0xbda86ddf	-0.08224081
51	0xbde9532a	-0.113928154
52	0xbc3f466f	-0.0116745075
53	0x3c03aab6	0.008036306
54	0xbe5729b8	-0.21012008
55	0xbe29a9eb	-0.16568725
56	0xbe7b0db7	-0.2451695
57	0xbe99306f	-0.29919764
58	0xbe80a746	-0.2512762
59	0xbe921f37	-0.2853944
60	0xbdbc9a5f	-0.092091314
61	0xbe3934e8	-0.18086588
62	0xbe5ad3c6	-0.21369848
63	0x3aa5f050	0.001266012
64	0xbd05337d	-0.032519806
65	0x3e72c6e4	0.23708683
66	0x3ec5f541	0.38663676
67	0x3eae972e	0.34099716
68	0x3e793e67	0.24340211
69	0x3b96b692	0.004599401
70	0x3e708e3b	0.23491757
71	0x3e2e4ad8	0.17020738
72	0xbc4b0f9e	-0.01239386
73	0xbe11a680	-0.14223671
74	0xbe99e1cd	-0.30055085
75	0xbde3f879	-0.11131377
76	0xbd967c55	-0.07347933
77	0x3db8c816	0.09022538
78	0x3cca3e99	0.024688052
79	0x3e241163	0.16022258
80	0x3d9be7d1	0.07612575
81	0x3e45682b	0.19278018
82	0x3e4ed326	0.20197734
83	0x3e132cb4	0.14372522
84	0x3d470165	0.048585314
85	0x3e202177	0.15637766
86	0x3b567c38	0.0032727849
87	0xbdbf31f3	-0.09335699
88	0xbcfd3195	-0.030907432
89	0xbc8ac90d	-0.016941572
90	0xbd0538b5	-0.032524783
91	0xbd2c0836	-0.042000018
92	0xbe17bc91	-0.14818026
93	0xbe599bf9	-0.21250905
94	0xbdfca6f6	-0.12336533
95	0xbd18c802	-0.037300117
96	0x3ce55a21	0.027997078
97	0x3c0b529b	0.008503581
98	0xbdd629cf	-0.10457193
99	0xbe004033	-0.1252449
100	0xbdf4ecd4	-0.11959234
101	0x3c158b79	0.009127491
102	0xbd8c8ae9	-0.068624325
103	0x3c28da34	0.01030593
104	0xbc838286	-0.01605345
105	0x3b1994a2	0.002343454
106	0x3e6df864	0.23239285
107	0x3dd3b5d4	0.10337415
108	0x3e1700bd	0.14746375
109	0x3da998b1	0.08281077
110	0xbce78ef7	-0.028266413
111	0xbbed75cb	-0.007246708
112	0xbe34e820	-0.17666674
113	0xbe73ca3f	-0.2380762
114	0xbe719f2c	-0.23595876
115	0xbe65839f	-0.2241349
116	0xbe8303b6	-0.2558877
117	0xbe4e6d03	-0.20158772
118	0x3e56c22f	0.20972513
119	0x3e5a1047	0.21295272
120	0xbe0c996b	-0.137304
121	0x3dfbaaaf	0.12288415
122	0x3ea367a6	0.31915015
123	0x3e827d2d	0.25486127
124	0x3e352ab5	0.17692073
125	0xbdf51f52	-0.119688645
126	0xbe873aa4	-0.26411927
127	0xbe1c47ca	-0.1526176
128	0xbdbdeac8	-0.092732966
129	0xbc6c8996	-0.0144371
130	0xbe52a63e	-0.20571229
131	0x3d0c8909	0.034310374
132	0x3e8239bc	0.25434673
133	0x3e7cc1b7	0.24683271
134	0x3de65202	0.112461105
135	0xbdbcfec9	-0.09228284
136	0x3d800df6	0.06252663
137	0x3e077b19	0.13230552
138	0xbd1417a8	-0.036155373
139	0xbded8a9b	-0.115987025
140	0xbe4886e7	-0.19582711
141	0xbe5cf3e9	-0.2157742
142	0xbee86f54	-0.45397437
143	0xbe921354	-0.2853037
144	0xbea850d2	-0.3287416
145	0xbd6e1a75	-0.0581307
146	0x3e202e0c	0.15642565
147	0x3dfda5bc	0.12385127
148	0x3e97df2c	0.29662454
149	0x3d297599	0.041371915
150	0x3d5a244c	0.05325727
151	0xbe3963f2	-0.18104532
152	0xbe434f1b	-0.19073145
153	0xbd837924	-0.0641959
154	0xbddb181c	-0.10697958
155	0xbb884cb0	-0.0041595325
156	0xbda13dd6	-0.078731224
157	0x3d289fc9	0.041168008
158	0x3d7ac72c	0.0612251
159	0x3d9e73ef	0.07736956
160	0xbdfc987b	-0.12333771
161	0x3d4ce269	0.05002061
162	0x3e7efdfd	0.24901576
163	0x3dd938f4	0.10606566
164	0xbe2e9b1b	-0.17051356
165	0x3b0ffabd	0.002196952
166	0x3e1d2bc7	0.15348731
167	0x3e3ef21c	0.18647045
168	0xbe0416c4	-0.1289931
169	0xbd3abc04	-0.045589462
170	0x3dbadc30	0.09124029
171	0x3de498f7	0.11161988
172	0xbda66558	-0.081247985
173	0xbe47dd01	-0.195179
174	0x3c209a41	0.009802402
175	0x3d501994	0.050805643
176	0xbcb9dc90	-0.02268818
177	0xbd4cc119	-0.04998884
178	0x3dd60dea	0.10451873
179	0x3de2dec0	0.110776424
180	0xbdce76ae	-0.1008123
181	0xbdc669bb	-0.09688135
182	0xbd025c77	-0.031826463
183	0x3de836c9	0.113385744
184	0x3d9eb79b	0.07749864
185	0xbdbe6172	-0.0929593
186	0xbc9b057f	-0.01892352
187	0x3d6cbe2a	0.057798542
188	0xbc9f73a2	-0.019464318
189	0xbdfcd146	-0.12344603
190	0x3db344f8	0.08753389
191	0x3bfb6261	0.00767164
192	0xbd471bdc	-0.048610553
193	0xbe6291f5	-0.2212599
194	0xbe99f182	-0.30067068
195	0x3dd708a9	0.10499699
196	0xbe044d49	-0.12920107
197	0xbd109b66	-0.03530445
198	0xbd748020	-0.059692502
199	0xbc65dc3f	-0.014029562
200	0x3da78beb	0.08180984
201	0x3d4182a5	0.047243733
202	0x3e08ba27	0.13352261
203	0x3e4c4617	0.19948612
204	0x3ccae3b9	0.02476679
205	0x3dd3e811	0.103469975
206	0x3e9c8a63	0.3057433
207	0x3ea2b67e	0.31779855
208	0xbd61af39	-0.055098746
209	0xbe2c7134	-0.16840059
210	0x3e97cb04	0.29647076
211	0x3ea2cf17	0.31798622
212	0xbe9bb48b	-0.3041118
213	0xbf28e548	-0.65974855
214	0xbe3c8d11	-0.18413188
215	0x3dae8edc	0.08523342
216	0xbf00e3c3	-0.50347537
217	0xbf68003d	-0.90625364
218	0xbf38c27d	-0.72171766
219	0xbb7ac149	-0.003826218
220	0xbdacb0d8	-0.08432168
221	0xbeb3430b	-0.35012087
222	0xbeaf05ca	-0.34184104
223	0xbdc5ca1a	-0.096576884
224	0x3ea137fe	0.3148803
225	0x3dc09f7e	0.09405421
226	0x3d97fece	0.07421647
227	0xb9bf0fb3	-0.00036442056
228	0x3cfa21a2	0.030533615
229	0x3dc3e17c	0.09564492
230	0xbd542810	-0.05179602
231	0xbc106f89	-0.008815655
232	0x3e258990	0.16165757
233	0x3d8d62f4	0.069036394
234	0x3e265a20	0.16245317
235	0x3d2bf17c	0.041978344
236	0x3d85e66b	0.06538089
237	0x3df4a3d2	0.11945309
238	0x3dcc782a	0.09983857
239	0xbe0a3a54	-0.13498813
240	0x3e42fd2d	0.19041891
241	0x3e172a5f	0.14762257
242	0xbd267dba	-0.040647246
243	0xbd494f10	-0.049147666
244	0x3d564ae4	0.052317515
245	0x3df43149	0.11923463
246	0xbe00e4fd	-0.12587352
247	0xbdb50724	-0.088392526
248	0x3d1f8f49	0.038955007
249	0xbe0c59fd	-0.13706203
250	0xbdd6a6a3	-0.10481002
251	0x3a97d7b3	0.0011584669
252	0x3dab1fc5	0.08355669
253	0x3e1587af	0.1460254
254	0x3d0a5c57	0.03377947
255	0xbdbd4dbe	-0.09243344

bias f4 [16]
0	0xbd15458d	-0.036443282
1	0x3e30c3cb	0.17262189
2	0x3dc2fc66	0.095207974
3	0x3dcf4353	0.10120263
4	0x3db90f5e	0.09036134
5	0x3c044ccf	0.008074953
6	0xbd9007a3	-0.070327066
7	0xbd889d48	-0.06670624
8	0xbcf27343	-0.029595977
9	0xbccc2d70	-0.02492401
10	0x3c32c66b	0.010911564
11	0x3b1d38fa	0.002399026
12	0x3cb1253a	0.021624196
13	0x3be75bba	0.007060495
14	0xbc8e87ad	-0.01739868
15	0x3d4a6c41	0.049419645

weight f4 [120, 400]
0	0xbd3e5eb6	-0.046477042
1	0xbcb88128	-0.022522524
2	0x3da2426b	0.079228245
3	0x3e08b423	0.13349967
4	0x3d1170ed	0.035508085
5	0x3e03a799	0.12856902
6	0x3e47ee52	0.19524506
7	0x3daed153	0.08536019
8	0x3d76c502	0.060246475
9	0x3dc6c13b	0.097048245
10	0x3d807b25	0.06273488
11	0xbce2483b	-0.027622333
12	0xbd9bdccf	-0.07610475
13	0x3dd9b68d	0.10630522
14	0x3e672563	0.22572856
15	0xbdc3c96f	-0.09559905
16	0x3cb2635e	0.021775898
17	0x3d660c2e	0.05616396
18	0x3da1b6b9	0.0789618
19	0x3d97f056	0.07418887
20	0xbb0c7962	-0.0021434654
21	0x3d7c8242	0.06164766
22	0xbc08bf79	-0.008346432
23	0xbe18de16	-0.14928469
24	0xbd689e5d	-0.056791652
25	0x3d114d17	0.03547391
26	0x3d9010ba	0.0703444
27	0xbbe5f93c	-0.0070182364
28	0xbe40bca5	-0.18821962
29	0xbe130a76	-0.1435946
30	0xb99764b0	-0.00028875982
31	0xbd37e4d6	-0.04489597
32	0xbd112b02	-0.035441406
33	0x3d518f13	0.051161837
34	0x3e2a71de	0.16645
35	0xbdefc6b8	-0.117078245
36	0xbd018b8e	-0.03162723
37	0x3d850a6b	0.06496128
38	0xbcec1e8b	-0.028823158
39	0x3bba217f	0.0056802626
40	0x3e883095	0.26599565
41	0x3db2435d	0.08704255
42	0xbdb5525d	-0.088536
43	0xbdc6664f	-0.096874826
44	0xbe9681f3	-0.29396018
45	0xba10fc84	-0.0005530792
46	0xbe38f6d5	-0.18062909
47	0xbc9b4d77	-0.018957837
48	0xbe4f46d2	-0.2024186
49	0xbe04b878	-0.12960994
50	0xbbc980a6	-0.0061493693
51	0xbda7ba95	-0.081898846
52	0x3c805bab	0.01566871
53	0x3dfb8e07	0.12282949
54	0xbdf59650	-0.119915605
55	0xbd55cd78	-0.052197903
56	0x3da132e1	0.078710325
57	0x3eacf5be	0.33781236
58	0x3d91ac13	0.07112899
59	0x3dc7690e	0.097368345
60	0xbc3d98b1	-0.011572049
61	0x3d6bf7a7	0.057609227
62	0xbc615346	-0.013752764
63	0xbda17b61	-0.07884861
64	0xbe349319	-0.17634238
65	0xbc0c7161	-0.0085719535
66	0x3c9ee3d3	0.019395744
67	0xbdc73faf	-0.097289436
68	0xbe19fc82	-0.1503773
69	0x3e0e11d8	0.13873994
70	0x3cf0d7b2	0.029399727
71	0xbc0974ec	-0.008389693
72	0xbd809c92	-0.062798634
73	0xbcc58c8a	-0.024114866
74	0x3ea97883	0.33099756
75	0x3da5c853	0.080948494
76	0xbbee9e70	-0.007282071
77	0x3bc99236	0.006151463
78	0x3ae13126	0.0017180785
79	0xbe2b4413	-0.16725187
80	0x3dd11503	0.10209086
81	0xbe2adfe7	-0.16686974
82	0xbd9bc8d2	-0.07606663
83	0xbdd2a55e	-0.102854475
84	0xbdb9d1f4	-0.090732485
85	0xbdaa8921	-0.083269365
86	0xbe3f50b2	-0.18683127
87	0x3d9044b7	0.07044356
88	0x3d33cc56	0.04389604
89	0x3e5e5731	0.21712948
90	0xbd931c21	-0.071830995
91	0x3d13b178	0.03605792
92	0x3dfbd68c	0.12296781
93	0x3af2a0a3	0.0018511008
94	0xbd7cc3f8	-0.061710328
95	0x3e4fde90	0.20299745
96	0x3dd65929	0.10466225
97	0xbb69795a	-0.003562531
98	0x3c3aaff0	0.011394486
99	0xbda6e15a	-0.08148451
100	0x3d604b9e	0.054759614
101	0x3d87df12	0.06634344
102	0xbd2aa3b7	-0.041660037
103	0xbc9d9ad6	-0.01923887
104	0x3e033b21	0.12815525
105	0xbd4424d2	-0.047886677
106	0x3d826ef9	0.063688226
107	0xbd750e48	-0.059828073
108	0xbd7a910f	-0.061173495
109	0x3d18681a	0.037208654
110	0xbc512a28	-0.0127663985
111	0x3d0c0f99	0.034194563
112	0xbc9ce680	-0.01915288
113	0xbd361ab2	-0.044459052
114	0x3d22e9d6	0.039773785
115	0x3d60f787	0.05492356
116	0xbd2bf17e	-0.04197835
117	0x3dc1c9d0	0.09462321
118	0x3de94363	0.11389806
119	0x3df0b454	0.11753145
120	0x3e38f913	0.18063764
121	0xbd8ffb4e	-0.070303544
122	0x3c91b6c9	0.017787354
123	0x3d6b665f	0.057470676
124	0xbb65ce2e	-0.003506552
125	0xbcba6747	-0.022754325
126	0xbcc9bb54	-0.024625458
127	0xbdd4ed8d	-0.10396872
128	0xbe9540bf	-0.2915096
129	0x3d8293b5	0.06375829
130	0x3e0f2500	0.13978958
131	0x3dd5c7d1	0.104385026
132	0xbdfd90f1	-0.12381161
133	0xbe13d99c	-0.1443848
134	0x3e1b123f	0.15143679
135	0x3e59dc15	0.21275361
136	0x3e064b41	0.13114645
137	0xbd9b4332	-0.07581176
138	0x3c8df340	0.017327905
139	0x3d208a2d	0.039194275
140	0x3de3f770	0.11131179
141	0xbdb4af66	-0.08822517
142	0xbdbec04e	-0.09314023
143	0xbe78f09a	-0.24310532
144	0xbe97e4d0	-0.29666758
145	0xbdb3a819	-0.087722965
146	0xbdb6cf8f	-0.089263074
147	0xbd1962ad	-0.03744762
148	0xbe7801f9	-0.24219503
149	0xbe88a114	-0.26685393
150	0x3db86c28	0.09005004
151	0x3e070822	0.13186696
152	0x3dc12419	0.09430713
153	0xbc011448	-0.007878371
154	0x3cb7c667	0.022433473
155	0x3da85df8	0.08221048
156	0x3d2f3033	0.042770576
157	0x3c0530e6	0.008129334
158	0x3e40019e	0.18750617
159	0xbc5658dc	-0.013082709
160	0x3ea6ec89	0.32602337
161	0x3d767121	0.060166482
162	0x3dd68e7c	0.104763955
163	0x3c50448c	0.012711655
164	0xbd405d5a	-0.046964027
165	0x3e00fcdb	0.12596457
166	0xbdac82e2	-0.084234014
167	0xbda5e995	-0.08101193
168	0xbcb94816	-0.022617381
169	0xbb44e842	-0.0030045663
170	0xbe595b70	-0.21226287
171	0xbd0fc2d3	-0.03509791
172	0x3d4ff708	0.050772697
173	0x3e6a3d5d	0.2287497
174	0x3ea82120	0.32837772
175	0xbd3d3362	-0.04619158
176	0x3b2a6732	0.002600145
177	0x3cac7d3f	0.021055816
178	0xbc05f016	-0.008174917
179	0xbc81ec3f	-0.015859721
180	0x3d28a3f9	0.041172
181	0x3d0441e1	0.03228939
182	0xbd83a557	-0.064280204
183	0x3c9c9fa1	0.019119086
184	0xbbcb83cf	-0.006210781
185	0xb98d9fe3	-0.0002701274
186	0xbd0851ec	-0.03328125
187	0x3c63cd62	0.013903948
188	0x3ccfd82c	0.025371633
189	0xbcc7b8a7	-0.024380041
190	0x3d4dc3c0	0.05023551
191	0xbcd1ce6b	-0.025611123
192	0x3ca1e522	0.01976258
193	0x3c63cba6	0.013903534
194	0x3ceaf09e	0.028679188
195	0xbcb4f657	-0.02209012
196	0x3b01f950	0.001983244
197	0xbcceddad	-0.025252188
198	0xbc952b22	-0.018209044
199	0xbcaa13b4	-0.020761348
200	0x3c300af1	0.010744796
201	0xbdb64d79	-0.089014955
202	0x3d82381d	0.06358359
203	0x3cf28172	0.02960274
204	0xbd826ae1	-0.06368042
205	0xbea5342e	-0.32266372
206	0xbdfab72a	-0.12241967
207	0xbc74e313	-0.014946717
208	0x3da67d2b	0.08129343
209	0xbd956820	-0.07295251
210	0xbeadebbc	-0.33968914
211	0xbe43f76d	-0.19137354
212	0xbd4fb065	-0.050705332
213	0x3dfbe6ff	0.122999184
214	0xbd1c6f2e	-0.038191967
215	0xbe5d660b	-0.21620958
216	0xbe2ff3b6	-0.17182812
217	0x3cc856b4	0.024455406
218	0x3de4a82f	0.11164891
219	0xbe370349	-0.17872347
220	0x3e2fbf22	0.17162755
221	0xbd9bbedc	-0.07604763
222	0x3dd7550c	0.10514268
223	0xbdc35d19	-0.09539241
224	0xbe83f69a	-0.2577408
225	0xbc76fb17	-0.015074513
226	0x3d761258	0.060076088
227	0x3e176c72	0.14787462
228	0x3d324917	0.043526735
229	0x3da85f25	0.082212724
230	0x3dd1c6f0	0.102430224
231	0x3e220f07	0.15826045
232	0x3dc0a84f	0.09407102
233	0x3c2f55d3	0.010701614
234	0x3da3df3f	0.08001565
235	0x3db3de2f	0.087826125
236	0xbd38889f	-0.045052167
237	0xbe97010e	-0.29492992
238	0xbde2d2e1	-0.11075378
239	0xbd31f9f9	-0.043451283
240	0xbde6fa9d	-0.112782694
241	0xbc8d5043	-0.017250186
242	0x3d1aab61	0.037761096
243	0x3cb4c744	0.022067674
244	0x3e9142be	0.28371233
245	0xbdd24b8b	-0.10268315
246	0xbd339cc6	-0.043850683
247	0x3d712443	0.058872472
248	0x3cf3c406	0.029756557
249	0xbcea7c12	-0.028623614
250	0xbc435d0c	-0.01192404
251	0x3c050a73	0.008120167
252	0x3ceff160	0.029289901
253	0x3df3b828	0.119003594
254	0x3dda9d1b	0.10674497
255	0x3dba99da	0.09111376

bias f4 [120]
0	0x3c8b2a96	0.01698808
1	0x3cdc7d29	0.02691515
2	0xbd8561c3	-0.06512787
3	0xbd2d0a5f	-0.04224622
4	0x3b9c2731	0.004765414
5	0x3ba56534	0.0050474647
6	0x3c377ff2	0.011199938
7	0x3db9e614	0.09077087
8	0xbdcc57a2	-0.09977652
9	0x3cd1cefd	0.025611395
10	0x3aa3e71c	0.0012504789
11	0x3da50c37	0.080589704
12	0x3ce15fc2	0.027511481
13	0xbd176fba	-0.036971785
14	0x3a07cce2	0.0005180371
15	0x3d22e0c3	0.03976513
16	0xbd1b040b	-0.037845653
17	0xbdc7799d	-0.09739993
18	0xbd3994cb	-0.045307916
19	0x3cd1762e	0.025569048
20	0xbd8f0593	-0.06983485
21	0xbd2878a3	-0.041130673
22	0xbc975335	-0.018472293
23	0xbce6a68a	-0.028155584
24	0xbd19abbd	-0.037517298
25	0xbd9664a8	-0.073434174
26	0x3cee6ff3	0.029106116
27	0x3d413f45	0.04717948
28	0x3d495abf	0.049158808
29	0xbcdb79fc	-0.026791565
30	0xbde93d2d	-0.113886215
31	0x3dc0eafa	0.09419818
32	0xbdfdb30d	-0.12387667
33	0xbd809e8b	-0.0628024
34	0xbd0ce6ed	-0.034399915
35	0xbcefdd60	-0.029280365
36	0xbd5beff1	-0.053695623
37	0x3d2cf6b5	0.042227466
38	0xbd763d60	-0.060117126
39	0xbc8ccb38	-0.017186746
40	0xbd48f1b8	-0.049058646
41	0xbd180369	-0.037112627
42	0x3c8bae68	0.017050937
43	0x3d1c1d28	0.038113743
44	0xbd730f2d	-0.059340645
45	0xbd6d765f	-0.057974216
46	0x3db798e4	0.089647084
47	0x3d9a9be8	0.07549268
48	0x3d79c6f9	0.06098077
49	0xbc75af43	-0.014995399
50	0xbddd34a4	-0.10801056
51	0x3cbb7f64	0.022887893
52	0x3d8545ca	0.06507452
53	0x3dd5d3b6	0.10440771
54	0xbd62b75e	-0.055350654
55	0x3c862b0b	0.016377946
56	0x3d80b3ec	0.062843174
57	0x3ddc0682	0.10743429
58	0xbdf0e323	-0.11762073
59	0xbdb7c790	-0.089736104
60	0xbd743940	-0.05962491
61	0xbb020d58	-0.001984438
62	0x3dcaf735	0.09910432
63	0x3d8b6031	0.068054564
64	0xbcc3f781	-0.02392173
65	0x3d83f73c	0.064436406
66	0x3d87661f	0.06611275
67	0x3dd4d543	0.10392239
68	0x3cff4f53	0.031165754
69	0x3d923328	0.071386635
70	0xbad28cc0	-0.0016063675
71	0x3d708acb	0.058726113
72	0x3dbee320	0.093206644
73	0xbd31c0cd	-0.04339676
74	0xbbeda773	-0.0072526275
75	0xbc8035f5	-0.015650729
76	0xbd185f4f	-0.03720027
77	0xbcd2ce07	-0.025733007
78	0xbcae31c6	-0.021263968
79	0xbd42ebdf	-0.047588225
80	0x3df602f0	0.12012279
81	0xbd0b20ba	-0.033966757
82	0x3e13c994	0.14432365
83	0xbda4f3a8	-0.08054286
84	0x3d09b3ee	0.03361886
85	0xbb6e786b	-0.0036387693
86	0x3cef00aa	0.029175121
87	0xbd113ee7	-0.03546038
88	0x3bc0414c	0.005867159
89	0xbd8b7303	-0.06809046
90	0x3d3b0d9f	0.045667287
91	0xbd001e81	-0.03127909
92	0x3d60b458	0.05485949
93	0xbc324bc2	-0.01088232
94	0xbd20931b	-0.03920279
95	0xbd7b8f9b	-0.06141625
96	0x3d90af65	0.07064704
97	0x3cab845c	0.020937137
98	0xbbd913b4	-0.0066246632
99	0xbd7af82b	-0.061271828
100	0xbcfc8223	-0.030823773
101	0xbd9d07bf	-0.07667493
102	0xbd632e98	-0.055464357
103	0x3d34455c	0.04401146
104	0x3cdae3b2	0.026719902
105	0xbd9b8359	-0.07593412
106	0x3c838f3b	0.016059509
107	0x3ce97ea5	0.028502772
108	0x3c32c9a2	0.010912331
109	0x3d3158f5	0.043297727
110	0xbccc4916	-0.024937194
111	0xbd13fb9d	-0.03612863
112	0x3ccd82ea	0.025086839
113	0x3c94eb97	0.018178744
114	0xbc99ad17	-0.018759293
115	0xbd995064	-0.074860364
116	0x3ce04660	0.027377307
117	0xbd102d59	-0.035199497
118	0x3cb52786	0.022113573
119	0x3c9e78f6	0.019344788

weight f4 [84, 120]
0	0xbd407af9	-0.046992276
1	0xbd287289	-0.041124854
2	0x3ccbbc83	0.024870163
3	0x3d8c11a8	0.06839305
4	0x3d61deff	0.055144306
5	0x3cc41b9e	0.02393895
6	0x3db174ce	0.08664857
7	0xbcaa1332	-0.020761106
8	0x3e1aef4e	0.1513035
9	0xbe0b5c8c	-0.13609523
10	0xbd5a5505	-0.053303737
11	0x3c8d5b38	0.01725541
12	0x3e44abf3	0.19206218
13	0x3d89a90d	0.06721697
14	0xbc0109e7	-0.007875896
15	0xbd5b2261	-0.053499583
16	0x3de6d8b6	0.11271803
17	0xbc6ff141	-0.014644922
18	0xbd84b9e2	-0.06480767
19	0x3d32b144	0.043626085
20	0x3dd1bb78	0.10240835
21	0xbdb5acaa	-0.08870824
22	0xbd2adbfc	-0.0417137
23	0x3daf60d1	0.08563388
24	0x3c8fb68e	0.017543104
25	0x3d59231a	0.05301199
26	0x3d3fa0ab	0.046784084
27	0xbd6319f6	-0.05544468
28	0xbe4ba821	-0.19888355
29	0xbd18c13c	-0.037293658
30	0x3dbc3a90	0.091908574
31	0xbdb4d490	-0.088296056
32	0x3e22556e	0.15852901
33	0x3daf9560	0.08573413
34	0x3dc63771	0.09678543
35	0x3b979e25	0.0046270066
36	0x3e857be8	0.26071095
37	0x3c2b0d27	0.0104401475
38	0x3e8f1e21	0.27952674
39	0xbd51c76b	-0.05121557
40	0x3d988ebc	0.074490994
41	0xbe063466	-0.13105926
42	0x3d5256f1	0.051352445
43	0x3e2cd40c	0.16877764
44	0x3eadcb3c	0.33944118
45	0xbddd4c71	-0.10805596
46	0xbb96e916	-0.0046054227
47	0x3d619a3d	0.055078734
48	0x3df2c5a2	0.11854102
49	0xbd371cab	-0.044705074
50	0x3e390cf8	0.18071353
51	0x3cb60785	0.022220382
52	0xbd1fca29	-0.039011154
53	0xbe66597a	-0.2249507
54	0x3da95351	0.082678445
55	0x3c9e5dff	0.01933193
56	0x3d4fe190	0.050752223
57	0xbd6dc389	-0.058047805
58	0x3dcbcb55	0.09950892
59	0x3e7d925b	0.24762861
60	0x3e0da7e2	0.13833573
61	0xbd20a05a	-0.039215423
62	0xbdf4d3b1	-0.119544394
63	0x3d633c32	0.05547733
64	0x3ce2245f	0.027605234
65	0xbeb6c11d	-0.3569421
66	0xbe08d00a	-0.1336061
67	0xbe23c617	-0.15993534
68	0x3c9f0a14	0.019413985
69	0x3d53bcc5	0.051693697
70	0xbccf99ca	-0.025341887
71	0xbdde41f7	-0.108524255
72	0xbe2689bb	-0.16263478
73	0x3d9b218a	0.075747564
74	0xbe207f57	-0.15673576
75	0x3d83fbd4	0.06444517
76	0x3cb584d2	0.02215806
77	0x3d92450f	0.07142078
78	0x3d88aa38	0.06673092
79	0x3e4ef628	0.20211089
80	0xbcfa1d7f	-0.030531643
81	0xbd227bf9	-0.03966901
82	0x3d9ac355	0.07556788
83	0x3df3d447	0.11905723
84	0xbe872fd4	-0.26403677
85	0xbdc2a381	-0.09503842
86	0xbda62c77	-0.0811395
87	0x3d5ea4ca	0.054356374
88	0xbd958b29	-0.07301933
89	0x3e13b1a0	0.14423227
90	0xbc512909	-0.012766131
91	0xbd027e2c	-0.031858608
92	0x3d8f1f7e	0.069884285
93	0x3da4766b	0.08030399
94	0x3c00e448	0.0078669265
95	0xbd4b7751	-0.049674336
96	0xbd534096	-0.051575266
97	0xbdab5396	-0.08365552
98	0xbde24108	-0.1104756
99	0x3d040f30	0.032241046
100	0xbc281b6e	-0.010260446
101	0x3e387b98	0.18015897
102	0xbcc63234	-0.02419386
103	0xbcda0fbb	-0.026618829
104	0x3e2a8ce1	0.16655304
105	0xbaa27446	-0.0012394271
106	0x3e7f9e2c	0.24962682
107	0x3cb52113	0.022110498
108	0xbc8f76b6	-0.01751266
109	0xbe155304	-0.14582449
110	0xbd68bbb8	-0.056819648
111	0xbd82dbd0	-0.06389582
112	0x3d96bb5c	0.07359955
113	0xbe213f9c	-0.15746921
114	0x3d61d33b	0.055133086
115	0x3e877eee	0.26464027
116	0x3e14f85d	0.14547868
117	0x3d672e90	0.05644089
118	0x3baed90f	0.005335934
119	0x3d08b355	0.03337415
120	0x3e88464b	0.2661613
121	0x3e3955aa	0.18099084
122	0x3e205f7e	0.15661427
123	0xbc039514	-0.008031148
124	0x3e1fa516	0.15590319
125	0x3cf4f773	0.02990315
126	0x3e1bd021	0.15216114
127	0x3e6cc7d8	0.2312311
128	0x3d7f35b7	0.062307086
129	0x3daf37e9	0.08555586
130	0x3dc46447	0.09589439
131	0x3b8076ad	0.0039203973
132	0x3c35315b	0.011059131
133	0x3d280c79	0.04102752
134	0x3d8a3166	0.06747703
135	0xbed54cf6	-0.4166028
136	0xbd6af19b	-0.05735932
137	0x3ce3d621	0.027812066
138	0xba82d4c0	-0.0009981617
139	0xbd8afa59	-0.06786031
140	0xbc387250	-0.011257723
141	0xbdaaadc9	-0.08333928
142	0x3e0745ab	0.1321017
143	0x3bcaa45a	0.006184143
144	0xbd4bf4c0	-0.04979396
145	0x3e2c043b	0.16798489
146	0xbb72e451	-0.0037062357
147	0xbe45e3a7	-0.19325124
148	0x3cd3d903	0.025860315
149	0xb880bf10	-6.139104e-05
150	0xbd2b7bf7	-0.04186627
151	0x3cf51184	0.029915579
152	0x3d82443e	0.063606724
153	0xbe9fee33	-0.3123642
154	0xbea7919e	-0.32728285
155	0xbe51bf18	-0.20483053
156	0xbdf3d19a	-0.11905213
157	0x3da649b9	0.0811953
158	0xbe254de6	-0.16142997
159	0xbdc82fb2	-0.09774722
160	0x3c92bb39	0.01791154
161	0xbdc8da3e	-0.098072514
162	0xbd8b2e46	-0.06795935
163	0xbe81931c	-0.25307548
164	0x3e2ec230	0.17066264
165	0x3d8bf961	0.068346746
166	0x3e252421	0.16127063
167	0xbc0647ca	-0.008195827
168	0x3d8fb33f	0.0701661
169	0xbd19bef7	-0.037535634
170	0xbd048b0a	-0.03235916
171	0x3d0a8358	0.033816665
172	0xbad40291	-0.0016175081
173	0x3e0f3d4e	0.1398823
174	0xbe19e1b5	-0.15027507
175	0x3e42af0c	0.19012088
176	0xbdb586b1	-0.08863581
177	0x3dfe8c4e	0.12429105
178	0xbdbea158	-0.09308118
179	0x3e1ef8fc	0.15524668
180	0x3e388889	0.18020834
181	0x3ca754e4	0.020426221
182	0x3cc6de37	0.024275882
183	0x3d2ac9b9	0.041696284
184	0xbd59521c	-0.05305682
185	0x3da6f72a	0.081526116
186	0x3dd53a0e	0.10411464
187	0x3dbe149c	0.09281275
188	0x3ce353a0	0.027749836
189	0x3df16cce	0.11788331
190	0x3d3ddeaf	0.046354946
191	0xbc3f9fd4	-0.011695821
192	0x3e248e57	0.16069923
193	0xbcb8bc99	-0.022550868
194	0xbe0490d3	-0.12945871
195	0x3b013a60	0.0019718632
196	0xbbc518bd	-0.006014912
197	0xbe25f1f8	-0.16205585
198	0x3d8ae2d4	0.06781545
199	0x3dc1ea22	0.094684854
200	0x3d9a8e7d	0.07546709
201	0x3dea9468	0.114540875
202	0x3dd71fa6	0.10504083
203	0xbc8a7bec	-0.016904794
204	0x3dd4fb82	0.10399534
205	0xbd138eca	-0.036024846
206	0x3db9f87e	0.09080599
207	0x3d4b2c2a	0.049602665
208	0x3cd2c2ef	0.025727717
209	0x3e24a599	0.16078795
210	0x3a9028f4	0.0010998533
211	0xbe2393eb	-0.15974395
212	0x3dd54b38	0.104147375
213	0x3d7cb22c	0.061693355
214	0xbd636ea6	-0.055525444
215	0x3cad62b7	0.021165235
216	0x3c031313	0.008000153
217	0x3bb2e8ec	0.0054598954
218	0xbd9d721e	-0.07687782
219	0xbe546e24	-0.2074514
220	0x3d82d6d4	0.063886315
221	0xbe198059	-0.14990367
222	0xbd9f64fb	-0.07782932
223	0x3d776cdf	0.060406562
224	0xbec0cddb	-0.37657055
225	0x3ca0202c	0.01954659
226	0xbd3ec522	-0.04657472
227	0xbe75e7d6	-0.2401422
228	0xbd92d50b	-0.07169541
229	0x3dcbb2b7	0.099461965
230	0xbb8fd2e9	-0.004389156
231	0x3d4966e6	0.049170397
232	0x3e65569c	0.2239632
233	0xbd6085a0	-0.054814935
234	0xbd967b7e	-0.07347773
235	0xbd9251fe	-0.07144545
236	0xbdaf1072	-0.085480586
237	0x3da9106b	0.082550846
238	0xbc8ff9a2	-0.017575089
239	0xbd3d9c49	-0.046291623
240	0x3b54df82	0.0032481854
241	0xbe8bc794	-0.27300704
242	0x3cc016d7	0.02344839
243	0xbba63f24	-0.005073445
244	0xbe500500	-0.20314407
245	0xbc6d3588	-0.014478095
246	0xbdcfc131	-0.1014427
247	0xbddab38b	-0.10678776
248	0x3df7b3f5	0.12094871
249	0xbe5c358a	-0.21504799
250	0xbd28dd01	-0.04122639
251	0xbe211f55	-0.15734608
252	0xbdd7ff48	-0.10546738
253	0xbdaeb0f2	-0.085298434
254	0xbdb118e4	-0.08647326
255	0x3d5766d5	0.052588303

bias f4 [84]
0	0x3d742f32	0.05961532
1	0x3e23896e	0.15970394
2	0xbe068bf4	-0.13139325
3	0x3db8d6e7	0.09025364
4	0xbce0434e	-0.027375843
5	0x3e35d98b	0.17758767
6	0x3e5ef568	0.21773303
7	0x3dad5a6d	0.08464513
8	0xbdb80d4b	-0.089869104
9	0x3d81138e	0.06302558
10	0x3df17606	0.11790089
11	0xbd72f2c1	-0.05931354
12	0xbca7a13e	-0.020462628
13	0xbd526bd9	-0.051372383
14	0x3e33c822	0.17556813
15	0x3dd86af1	0.105672725
16	0xbdfac149	-0.122438975
17	0xbd4b0afa	-0.049571015
18	0xbda5cff3	-0.08096304
19	0x3cb4fcd4	0.022093214
20	0x3e253224	0.16132408
21	0xbc841bc8	-0.016126528
22	0xbcbae659	-0.022814916
23	0x3e3746aa	0.1789805
24	0xbd8b8bf2	-0.06813802
25	0xbd978e25	-0.07400159
26	0x3e81c327	0.25344202
27	0x3d105a59	0.035242412
28	0x3e2016d2	0.15633705
29	0xbd4639ec	-0.048395082
30	0xbca51a2e	-0.020154085
31	0x3e16f4f9	0.14741887
32	0xbd9e6f0f	-0.077360265
33	0x3cf7f997	0.03027038
34	0x3e2f99e5	0.1714855
35	0x3da4243b	0.08014723
36	0x3e0da3a3	0.13831954
37	0x3c89df75	0.016830185
38	0xbcbd951a	-0.023142386
39	0xbdac0211	-0.08398832
40	0x3d9e4a8d	0.07729063
41	0xbd25924c	-0.040422723
42	0xbbc41d4a	-0.005984937
43	0xbde2da61	-0.11076809
44	0x3c75a556	0.014993032
45	0x3e4571a3	0.1928163
46	0xbe3149ee	-0.17313358
47	0xbd324960	-0.043527007
48	0xbca7e742	-0.020496015
49	0xbd89aee6	-0.06722812
50	0x3d390cc3	0.045178186
51	0x3dbc3c78	0.09191221
52	0xbda21805	-0.079147376
53	0x3d84f0fa	0.06491275
54	0x3e108a93	0.14115362
55	0x3e253133	0.1613205
56	0x3a80e27a	0.000983312
57	0x3e0c0afa	0.13676062
58	0x3dadeb48	0.08492142
59	0x3d56612c	0.052338764
60	0x3e2ede03	0.17076878
61	0x3d9eb015	0.07748429
62	0x3e108671	0.14113785
63	0x3e62f6ea	0.22164503
64	0xbd156ec9	-0.036482606
65	0x3d45578c	0.048179194
66	0xbc56826b	-0.0130926175
67	0xbd6afdab	-0.057370823
68	0xbbd3f3a0	-0.0064682513
69	0x3e0085fe	0.12551114
70	0xbe233e73	-0.15941791
71	0x3ce4ff0e	0.02795365
72	0x3dfe7202	0.12424089
73	0x3bc98ef0	0.0061510727
74	0x3db54120	0.08850312
75	0x3e465fc4	0.19372469
76	0xbd0aea06	-0.03391459
77	0x3e13267b	0.14370148
78	0x3e3d1758	0.18465936
79	0x3e01f001	0.1268921
80	0x3d443dfc	0.047910675
81	0x3d7705f5	0.060308415
82	0xbd9b8d24	-0.0759528
83	0xbd6f8376	-0.05847498

weight f4 [10, 84]
0	0xbd9e6c07	-0.07735448
1	0xbe4833b1	-0.19550969
2	0xbc38fd8e	-0.011290921
3	0xbd3e7280	-0.046495914
4	0xbcb66da6	-0.022269081
5	0x3df118b3	0.11772289
6	0x3e217ff1	0.15771462
7	0x3dc8a3ee	0.09796892
8	0x3d2ff1f3	0.04295535
9	0x3e71352c	0.2355544
10	0xbe024fc1	-0.12725736
11	0xbe76b13d	-0.24091049
12	0x3ce6882f	0.02814111
13	0xbdd5eb15	-0.10445229
14	0x3d2515f8	0.040304154
15	0xbdb7da88	-0.089772284
16	0xbe27db66	-0.16392288
17	0x3de1bc31	0.11022223
18	0x3ce82dea	0.028342206
19	0xbdae8a85	-0.08522514
20	0x3e1fc869	0.15603794
21	0xbcfadae8	-0.03062196
22	0x3dc1a517	0.094553165
23	0xbe3a0209	-0.18164839
24	0x3c62d591	0.0138448635
25	0x3d0424b6	0.032261573
26	0x3dbea766	0.093092725
27	0xbdd68c78	-0.10476011
28	0xbe59bc91	-0.21263339
29	0xbca91e0a	-0.020644207
30	0x3da26262	0.07928921
31	0x3bb2bd2a	0.005454679
32	0xbe2eae12	-0.1705859
33	0xbe47926f	-0.19489454
34	0x3e2fde44	0.17174631
35	0x3dfdf0f1	0.123994716
36	0xbe6ed6dc	-0.2332415
37	0xbe3d39c6	-0.1847907
38	0x3d3b805e	0.045776717
39	0x3d87de68	0.066342175
40	0x3e42242c	0.18959111
41	0x3d31c800	0.043403625
42	0xbcd12829	-0.025531845
43	0x3d7c0d91	0.061536375
44	0xbe39944a	-0.18122974
45	0x3d54617b	0.051850777
46	0xbe2ccf32	-0.16875914
47	0xbc863795	-0.016383925
48	0xbdc78b3d	-0.097433545
49	0xbdecbee0	-0.11559844
50	0x3dfd5c28	0.12371093
51	0xbd87d3ab	-0.06632169
52	0xbdd557f9	-0.1041717
53	0xbdba6dde	-0.09102987
54	0xbd91bb11	-0.07115758
55	0x3e8fd4b1	0.28091958
56	0x3e2061aa	0.15662256
57	0x3e630fa6	0.22173938
58	0xbe105689	-0.1409551
59	0xbe6f1a96	-0.23349985
60	0x3d8d68ac	0.0690473
61	0xbe75b661	-0.23995353
62	0xbdc46135	-0.09588853
63	0x3e6845bd	0.22682853
64	0xbe18ff64	-0.14941174
65	0xbe5e20c6	-0.2169219
66	0xbe334ff7	-0.17510973
67	0xbe4432bc	-0.19159979
68	0xbe2ebaeb	-0.17063491
69	0xbba2fd6c	-0.004974058
70	0xbd86c427	-0.06580382
71	0xbe8d0d70	-0.27549314
72	0x3db9ceb3	0.09072628
73	0xbeb59986	-0.35468692
74	0xbe63ea0a	-0.22257248
75	0xbdebb329	-0.115087815
76	0x3d994e51	0.07485641
77	0xbd8b6588	-0.06806475
78	0xbe804aac	-0.2505697
79	0xbceae84c	-0.02867522
80	0x3e0269c1	0.12735654
81	0x3dc859d6	0.0978276
82	0x3d6e3f82	0.058166035
83	0x3c9ef47d	0.01940369
84	0x3e26dfda	0.1629633
85	0x3debcd24	0.11513737
86	0xbdf64e8d	-0.12026701
87	0x3e9e5f2c	0.30931985
88	0xbe40c34d	-0.18824501
89	0x3dc0e00f	0.09417736
90	0xbe5cb3da	-0.21552983
91	0xbe2aa2a3	-0.16663603
92	0xbc19ef23	-0.009395394
93	0xbd3e2ea5	-0.046431202
94	0x3e036127	0.1283003
95	0xbedcdcd1	-0.4313722
96	0xbe653a5b	-0.22385542
97	0x3ce3a604	0.027789123
98	0xbe09c463	-0.13453822
99	0x3e034225	0.12818201
100	0xbd768fe6	-0.060195826
101	0xbd61a553	-0.055089306
102	0x3d16c937	0.036812987
103	0xbe01e606	-0.12685403
104	0xbd698d09	-0.057019267
105	0xbe83cd06	-0.25742358
106	0xbe8242a2	-0.25441462
107	0x3d966179	0.0734281
108	0xbe2a7ecc	-0.16649932
109	0x3dff8a43	0.12477543
110	0xbe4eb412	-0.20185879
111	0xbe76f679	-0.2411746
112	0x3c277667	0.0102211
113	0xbe6a7b97	-0.22898708
114	0xbe47840f	-0.1948397
115	0x3e166733	0.14687805
116	0xbd6be8a6	-0.057594918
117	0x3e04c3c5	0.12965305
118	0xbe75092b	-0.23929279
119	0x3e24bcba	0.16087618
120	0xbc5698f0	-0.013097987
121	0x3e23d98a	0.16000953
122	0x3cd5fd3d	0.02612173
123	0xbe1bb799	-0.15206756
124	0xbe692e1e	-0.22771499
125	0xbc9bbe3b	-0.019011607
126	0xbc11427e	-0.008865951
127	0x3e1035ae	0.14082977
128	0xbd68742d	-0.05675142
129	0xbe13cbd4	-0.14433223
130	0xbc78a98b	-0.015177141
131	0x3df4af01	0.11947442
132	0x3e08e503	0.13368611
133	0xbe6920a3	-0.22766356
134	0x3ea94163	0.330577
135	0xbdc5b9c2	-0.09654571
136	0x3d7afbde	0.061275356
137	0xbd996cdd	-0.07491467
138	0x3c4ba3b9	0.012429171
139	0x3e380379	0.17970075
140	0xbd54aed9	-0.05192456
141	0xbe989dfb	-0.2980803
142	0xbcdfb1e5	-0.027306506
143	0x3e1c712d	0.15277548
144	0xbe2b345f	-0.16719197
145	0x3e17d46e	0.14827129
146	0x3e355949	0.17709841
147	0x3d285183	0.04109336
148	0xbe6c577c	-0.23080248
149	0x3e2248ff	0.15848158
150	0xbe136dff	-0.14397429
151	0xbdf286f1	-0.11842144
152	0xbe9f3880	-0.31097794
153	0x3da6b74e	0.08140431
154	0x3bbc70dc	0.0057507586
155	0x3e0af76b	0.13570945
156	0x3e0ae5e0	0.13564253
157	0x3dec7f96	0.115477726
158	0x3c525619	0.01283791
159	0x3dbff551	0.09372962
160	0xbdcd6206	-0.10028462
161	0x3d396bde	0.045268886
162	0xbd36ef00	-0.044661522
163	0x3e54600c	0.20739764
164	0xbe872b2b	-0.26400122
165	0x3e0ed414	0.13948089
166	0xbe96b135	-0.29432073
167	0x3e6ee67b	0.23330109
168	0xbe13450e	-0.14381811
169	0x3e431f71	0.19054963
170	0xbd148ed2	-0.036269017
171	0xbe30f490	-0.17280793
172	0x3da817e5	0.082076825
173	0xbd613e64	-0.05499114
174	0xbd8ac4fd	-0.06775854
175	0x3caba134	0.020950891
176	0xbdfe0521	-0.12403322
177	0x3d97586b	0.07389911
178	0xbdd9d54a	-0.10636385
179	0xbde75b04	-0.11296657
180	0xbe4b62ef	-0.19861959
181	0xbcd16cac	-0.025564514
182	0xbdbfd164	-0.0936611
183	0x3e2d5e5e	0.1693053
184	0xbe28ff89	-0.16503729
185	0xbda47bed	-0.080314495
186	0xbdd9068d	-0.105969526
187	0x3e1e8c52	0.15483215
188	0x3dc24b0b	0.094869696
189	0x3d4b96dd	0.04970442
190	0xbd4a7586	-0.049428485
191	0xbe495b36	-0.196637
192	0xbd4e880e	-0.05042272
193	0xbd40ebe6	-0.04709997
194	0x3e37e97a	0.17960158
195	0x3e60f996	0.2197021
196	0xbdf26b56	-0.11836879
197	0xbe13ff9a	-0.14452973
198	0xbe6539a8	-0.22385275
199	0xbdd344b0	-0.103158355
200	0xbd6512e7	-0.05592623
201	0x3e0b0f60	0.13580084
202	0x3e3ca33d	0.18421645
203	0x3e28467a	0.16433135
204	0xbe1ed67f	-0.15511511
205	0xbe4a480e	-0.19754049
206	0x3cc12671	0.0235779
207	0xbe375013	-0.1790164
208	0xbdcedcfc	-0.10100743
209	0x3df68ba4	0.12038353
210	0xbd9069e0	-0.07051444
211	0xbe82dc0f	-0.25558516
212	0x3da3f6d7	0.08006065
213	0xbb6b9410	-0.0035946406
214	0x3d1b2953	0.037881207
215	0x3da96547	0.0827127
216	0xbd21ee85	-0.03953411
217	0x3c8b6f60	0.017020881
218	0xbe96d4d1	-0.2945924
219	0xbe23199d	-0.1592774
220	0x3c9cf5bc	0.019160144
221	0x3d139a7b	0.036035996
222	0xbe25af70	-0.16180205
223	0xbee904fc	-0.45511615
224	0xbe2a047f	-0.16603278
225	0x3e311f19	0.17297019
226	0xbe1d6c7d	-0.15373416
227	0x3d156bbc	0.036479697
228	0xbe273eec	-0.16332597
229	0x3e0fdbc2	0.14048675
230	0xbe0ea84a	-0.13931385
231	0xbe1b3228	-0.15155852
232	0xbd857f98	-0.06518477
233	0x3e00ed73	0.1259058
234	0x3cd47748	0.025935784
235	0x3ce3b98c	0.027798437
236	0x3d999017	0.07498186
237	0xbd8097d2	-0.062789574
238	0xbd702f46	-0.058638833
239	0x3e3d5944	0.18491083
240	0x3ca1db9a	0.019758034
241	0xbd09ccf2	-0.033642717
242	0xbd7cfbd3	-0.061763596
243	0x3cb2e162	0.021835987
244	0xbd9e8fd8	-0.0774228
245	0x3e13cec4	0.14434344
246	0x3d8616d8	0.06547326
247	0xbe9049c1	-0.2818127
248	0xbdf240e5	-0.11828784
249	0xbe5463c6	-0.20741186
250	0x3dba33fa	0.09091945
251	0xbd96f136	-0.07370226
252	0x3e056b12	0.13029125
253	0x3dd24f15	0.1026899
254	0xbcf44e7a	-0.029822577
255	0xbea2aae3	-0.31771

bias f4 [10]
0	0x3e0c524b	0.13703267
1	0x3d8cbfe4	0.06872538
2	0x3cb2d3c4	0.021829493
3	0xbd7ff835	-0.062492568
4	0xbdb1f76d	-0.08689771
5	0x3d6874e1	0.05675209
6	0xbd328147	-0.04358032
7	0xbbf771c4	-0.0075514037
8	0x3dbc6956	0.09199779
9	0x39bd4da4	0.00036106736
