lenet.pth (torch_old, 262626 bytes, 10 tensors)

weight f4 [6, 1, 5, 5]
00000000: be71 c63c 9c27 133d 5ace 693e 3402 cebc
00000010: 43ad 693e 9f82 4f3e 33aa 2a3e 962b 193e
00000020: b5e5 123e dbc0 b4bd 421d 3f3e 1841 793e
00000030: 82ef 2fbe ff7c 8d3d e747 d8bd da2c 82bc
00000040: 270e 803d 7318 583e cb32 273e cd5f a9be
00000050: 50f6 4ebe e5da 453e e588 053d 0080 3abe
00000060: 6fea adbe 5b81 2abe 7bbc e3be 0cd4 7fbe
00000070: a800 093d aa5a 863e c12b bebe ea6d aabe
00000080: cae9 3dbe f621 df3d f1ef 983e a286 b9be
00000090: 7309 24be 3909 93bd e3a7 893e d556 3b3e
000000a0: 421a 24be 6ac4 babd f456 393e 1af5 df3d
000000b0: a7cb aa3d 69c6 31be d1d9 b73c 5ffc 0c3e
000000c0: 4dfa df3d 5f81 123e e844 6b3e 7bc5 ec3e
000000d0: dd6c 903e 7067 823e f20c 953d 4faf 953d
000000e0: 20d7 7b3d 93a4 923e dba9 173d 6720 8d3c
000000f0: 8ce5 c2be 000f e2be 7757 0ebf a807 babe
00000100: 51d4 dabe 3b27 9fbe c51e 0ebf ead5 f9be
00000110: ccaa 4fbe 6897 c2bd cc6f 443e 5afe 893e
00000120: 3600 d33d 88f9 7e3e b78a 593e 6eb3 903c
00000130: de9c 603e fe0b 5ebd 7d10 c5bd 24db fd3d
00000140: 6c41 ce3c 5657 863e 73b3 d83e da69 293e
00000150: af15 d6bd c78e 103e c2f7 ce3d 1cb1 903e
00000160: 4a58 c53e 834f 7d3e 1987 87be 7376 5cbe
00000170: 5184 2abe 41b9 2fbc bc83 a2bd f130 f6be
00000180: c418 e2be c07e 9bbe 9580 63bb d04b 6dbc
00000190: 5a7f 633d 1bea 42bd f51f c7be 3215 fcbe
000001a0: 8778 c4be 56da d7bd 742d 123e 82bc f13d
000001b0: fb0b a4be 528c b0be 71e7 c03c b1b6 5b3e
000001c0: 14e3 3a3e 7aa7 a5bd 5ead c1bd 97c5 d23d
000001d0: f0c8 863e bde5 b43e b94f 443e fe19 903e
000001e0: 859b 2abe 79cb 58bd 6032 6b3d af27 d73e
000001f0: daf1 b53e 2816 b5be 5586 a1be ff9a 973d
00000200: 228b cbbd e665 10be 551c 3cbe eafe 06be
00000210: ac50 753a dc2b 893e 9f27 643e c028 6d3d
00000220: c0c8 c63e 4ec4 c53e 4dbd 133e a7ed 423a
00000230: 97a2 3c3d 1601 bd3e 668f 613e 2235 983d
00000240: 443e abbe 3bc6 933d 7498 40bd 942d 2dbd
00000250: 590a 0ebd 83d2 04bf
0.024224158 0.035926446 0.22832623 -0.025147535 0.2282 0.20264672 0.16666488 0.14958033
0.14345439 -0.08825847 0.18663505 0.24341238 -0.17181209 0.06908607 -0.10560589 -0.015890528
0.06252699 0.21103077 0.1632797 -0.33080903 -0.20211148 0.19321783 0.032601256 -0.1821289
-0.3396792 -0.16650908 -0.44479737 -0.24983233 0.03344789 0.26241046 -0.37142757 -0.33286983
-0.18546215 0.108951494 0.2987056 -0.3623553 -0.1601923 -0.071794935 0.268859 0.18294843
-0.16025642 -0.09119494 0.18099576 0.10935421 0.08339625 -0.17360844 0.02244273 0.13768147
0.10936413 0.14307164 0.22975504 0.46244416 0.28208056 0.25469542 0.0727786 0.07308828
0.061484456 0.28641185 0.03702722 0.017227365 -0.38065755 -0.4415207 -0.5560221 -0.36333966
-0.4274011 -0.31084618 -0.555157 -0.48796016 -0.20279998 -0.09501535 0.19183272 0.26951867
0.103027746 0.24899876 0.21244322 0.017663684 0.2193484 -0.054210655 -0.096222855 0.123953134
0.02517768 0.26238507 0.4232441 0.16544285 -0.104533546 0.14116965 0.1010585 0.28260124
0.38543922 0.24737363 -0.2647026 -0.2152956 -0.16652037 -0.01072532 -0.079352826 -0.48084214
-0.4415952 -0.3037014 -0.0034714092 -0.014483407 0.055541374 -0.04758654 -0.3889157 -0.4923492
-0.38373205 -0.10539691 0.14275151 0.11803533 -0.3204039 -0.34482056 0.02354786 0.2145641
0.18250686 -0.08088584 -0.09456895 0.102915935 0.26325178 0.35331526 0.19171037 0.2814483
-0.16660888 -0.05292842 0.05742109 0.42022464 0.3553608 -0.35368466 -0.315478 0.0740261
-0.09938647 -0.14101371 -0.18370183 -0.1318318 0.00093580293 0.26791275 0.22280739 0.05790019
0.38825035 0.3862633 0.14427681 0.00074359257 0.046053495 0.3691489 0.22027358 0.07432009
-0.33445942 0.07215544 -0.04702039 -0.042279795 -0.034677837 -0.51883715

bias f4 [6]
00000000: 80ba 31bd cc5c be3d f38f ee3d c115 7bbc
00000010: 9ae1 413b b182 57bc
-0.04339075 0.09295043 0.1164855 -0.015325011 0.0029583932 -0.013153718

weight f4 [16, 6, 5, 5]
00000000: 4f5e 82bc 97f7 76bd f1a7 58bd ae3e 8dbd
00000010: 7449 a33c d1c9 04be 3957 343b c26c e6bd
00000020: 5dc0 e2bd 2c80 6bbd 63a9 b0bd 56f2 60bd
00000030: 3ea4 163e 0679 b83b 3be2 b13d 8ff0 ecbb
00000040: f5e1 353d 45b0 183e 2465 f53d 398d 09bd
00000050: 615a d23d 2afd 4b3d b08b 1d3e 922d d83c
00000060: 400b 0fbd a46d 91bd 2569 233d a16e 24bd
00000070: 06d0 223e 3dc0 edbc ed21 cebd ed25 79be
00000080: f85b 5cbe 24ea 3abd 49d7 123d 3689 5cbd
00000090: dac6 05be 680e b4be 3492 1abe 71aa 2a3e
000000a0: af3c 20be 5599 823c c0ba 853d 6966 0dbb
000000b0: 5418 023e 28b3 5dbd ab86 4c3e 4aec 823e
000000c0: 30ad 943d e50b ae3d af28 05be 3d94 023e
000000d0: 2767 bc3e 7a87 033e 15bd 88be e8ef 423d
000000e0: 4094 a4be 3b5e 02be 9b09 633c 1e55 d4bd
000000f0: fba8 a9bc 070f 93bd 7227 f3bc 5591 32bc
00000100: f18a 45bd aba4 3ebe 5476 983c 153d 0dbd
00000110: 750b aabe 13a1 02be b6be 84be 7339 90be
00000120: 8886 7bbe c874 3cbe c9da bdbd 422a eebd
00000130: 77f2 84be 08c4 dc3d 4bcf aa3e 9912 f93d
00000140: adf9 463e 084b 7a3e aac6 65be 985e 50be
00000150: 6804 b2bc 1a07 62bd f8de 373e 42ed 3a3e
00000160: 2c68 e7bc b5d0 e43c 4a6c 5dbe 874f e7bd
00000170: 4f99 c0bc 77b0 873c 8d83 263b f27b a2bd
00000180: 75e0 dbbd 900c 863d 101f b63d 014e 943c
00000190: 4a57 403e bfaa a1bc f061 98be 4972 7bbe
000001a0: ca43 2d3e 35a5 a83d 36ff 9c3e dd49 1e3e
000001b0: b176 26bd 54d0 003e 0af9 9dbc c05d 8b3e
000001c0: d127 8b3e 5fbc 073e db05 1ebc c252 f93d
000001d0: 97c7 5a3d 56bd 223d 0925 44be 472e 8dbe
000001e0: 08c8 1fbd 313c 73be 2cdd 8ebe b2b2 76be
000001f0: 3c76 e3bd 3a84 8b3d b888 d63d e13e 5bbd
00000200: cf5a 9dbd 7ab0 fdbd f368 4cbe 00ac b83c
00000210: f8fd 2b3d 4b3a 89bd 378a 8bbb d74e 7dbd
00000220: 4569 be3c 770f bc3d 1213 073d 7bd2 3d3e
00000230: c45e c33d 0bed c13d 4e49 34bc 1bcc 2d3d
00000240: eced 9dbc a58c f53d eb94 7d3e 9678 963d
00000250: bf94 9f3c 1afb 3dbe 9044 643b 243d b5bc
00000260: 7bd0 8e3d affd 07bd f85d e7bd daf0 34bd
00000270: 8bfc adbd 8408 203d 1584 b43d 3fe8 a4bd
00000280: 5aa4 c3bd b3b2 35bd 9502 393d 362c b83d
00000290: 7129 463d 83a2 e1bb 4f31 013d c905 893d
000002a0: e604 803d f6e6 d0bd 998a 053d d415 333d
000002b0: 72f7 303d d6c8 7a3d df5d b33d e712 173d
000002c0: e192 32bd 109d 01be 8ae5 2ebe e4e3 b23d
000002d0: 9aaf 08bc 6fe8 f2bd ef8e 913d a8d3 c53d
000002e0: a17f f73d a424 28be 8fb3 edbc e458 0e3e
000002f0: c1a0 413e 5c8f d63c 7ed2 49bd 2b8f 03be
00000300: ac45 31be c2e8 43be 0272 d23d 3692 5bbe
00000310: 8a6f 8abe ffab 30be 20a2 efbe e481 d0be
00000320: b08c 01be 252c 503d 47db 893d 2162 abbd
00000330: 6fbb 03be 2d6b eabd 290d 60be 65c2 a5be
00000340: a22d 8bbe 7e6d 13be 215d 0dbe ecd0 67be
00000350: c352 d6be 04c7 80bd 8274 a43d 066c 0bbe
00000360: e8c8 abbd 1560 af3d c98b 80bd 7060 dabd
00000370: 534d 023d c1be 163e e5c1 023c e07d 16be
00000380: 0504 5b3d 8415 063d 656c fc3d a9db 263d
00000390: 2c9b 62bd eee0 ffbd 4a25 da3d bd68 063e
000003a0: c1c2 1ebd 6f12 04be 8092 e9bd d737 05bc
000003b0: 24c4 82be fe6e 8ebe 685b ccbd ba52 b3bc
000003c0: a25e 7f3d a651 ec3d ecc2 a23d d9ee fcbd
000003d0: 42ac 5dbe 854e 1a3e dd51 3a3e ca30 b6bc
000003e0: 26fd 1d3e c835 843e dea6 a23d 7bcc c13c
000003f0: 0cca 243c cd70 243e 6d0f 523d ac8e ac3d
-0.01591411 -0.060294714 -0.052894536 -0.06896721 0.019932486 -0.12967612 0.002751781 -0.11251213
-0.11071847 -0.05749528 -0.08626058 -0.05491861 0.14711091 0.0056296615 0.08685728 -0.0072308253
0.044404943 0.14910991 0.11982182 -0.033581946 0.10271145 0.049801983 0.15385318 0.026388917
-0.03492284 -0.071009904 0.039895196 -0.040144566 0.15899667 -0.02902233 -0.100650646 -0.24330874
-0.21519458 -0.04563345 0.035849843 -0.053841792 -0.13064137 -0.3516724 -0.15094835 0.1666658
-0.15648149 0.015942255 0.0652976 -0.0021575934 0.12704593 -0.054125935 0.19973247 0.255709
0.072595954 0.084983625 -0.13003801 0.12751861 0.3679745 0.12844649 -0.26706758 0.047592074
-0.32144356 -0.12731259 0.013857271 -0.10367797 -0.020710459 -0.071806006 -0.029681895 -0.010898908
-0.048228208 -0.18617503 0.01861111 -0.03448208 -0.33211866 -0.12756757 -0.2592675 -0.2816883
-0.24563038 -0.18403924 -0.092702456 -0.11629154 -0.25966236 0.107795775 0.33361277 0.1216175
0.19431181 0.24442685 -0.22439066 -0.20348585 -0.021730617 -0.055182554 0.1795615 0.18254569
-0.028247915 0.02793155 -0.2162334 -0.112944655 -0.023510603 0.016563637 0.0025408 -0.07933797
-0.10736171 0.06545365 0.088926435 0.018103601 0.18783298 -0.019734738 -0.2976222 -0.24555315
0.1692039 0.08234636 0.3066346 0.15457864 -0.040640537 0.12579471 -0.01928379 0.27219963
0.27178815 0.13255452 -0.009644951 0.12173988 0.053413 0.039731346 -0.19154753 -0.2757437
-0.039009124 -0.2375343 -0.27903116 -0.24091604 -0.11106536 0.068123296 0.10475296 -0.053526763
-0.07683336 -0.12387176 -0.1996191 0.022542953 0.04199025 -0.067005716 -0.00425842 -0.061842766
0.023243556 0.09182637 0.03297717 0.18537323 0.095395595 0.094690405 -0.011003805 0.04243098
-0.019278489 0.119897164 0.24763839 0.07347219 0.019480107 -0.18552819 0.0034830905 -0.02212388
0.06973358 -0.033200916 -0.1129722 -0.044175006 -0.084954344 0.03907062 0.08814255 -0.0805211
-0.09552832 -0.044359874 0.045168478 0.089928076 0.048379365 -0.006885828 0.031541165 0.066905566
0.06250934 -0.10200302 0.03260288 0.04372199 0.043204732 0.06122669 0.08758139 0.03688326
-0.043597106 -0.12657571 -0.1707975 0.08734873 -0.008342648 -0.118607394 0.071073405 0.09659511
0.1208489 -0.16420227 -0.029016284 0.13901097 0.18908979 0.026191406 -0.049273007 -0.12847583
-0.17311734 -0.19131759 0.102756515 -0.21442494 -0.27038223 -0.17253111 -0.4680338 -0.407241
-0.12651324 0.05082335 0.06731277 -0.08368326 -0.12864469 -0.114462234 -0.2188002 -0.32374874
-0.27183253 -0.14397237 -0.13805057 -0.22638291 -0.41860017 -0.06287959 0.080300346 -0.13615426
-0.08387929 0.08563248 -0.06276662 -0.10662925 0.031812023 0.14721204 0.007980798 -0.14696455
0.05347063 0.032735363 0.12325362 0.040736828 -0.055323765 -0.12494074 0.106516436 0.13125892
-0.03875995 -0.12897657 -0.11404896 -0.008130989 -0.25540268 -0.27819055 -0.09978372 -0.021890033
0.06234611 0.11539011 0.07947335 -0.12350244 -0.21647742 0.15069015 0.18195291 -0.022240061
0.154286 0.25822282 0.07941984 0.023657074 0.010057937 0.16058655 0.051284242 0.0842565

bias f4 [16]
00000000: 63c2 823d 007d 353d cba7 543d 241b 143c
00000010: 5fc2 843d 92b9 ad3c 12e1 b2bc 4477 933d
00000020: 4102 35bd 66e8 99bc 0861 c23c ed4f 81bd
00000030: 7ee3 4a3d 6a86 443d aaa5 debc abe7 27bc
0.063847326 0.044308662 0.051917832 0.009039674 0.06482386 0.02120665 -0.021835838 0.072004825
-0.044191603 -0.018787574 0.023727909 -0.06314073 0.04953336 0.04797975 -0.027178604 -0.010248105

weight f4 [120, 400]
00000000: 9615 f7bd 3b1d e9bd 1d6c 33be aa38 36be
00000010: 1218 7cbd 7142 35be b5ba 14be d647 7abd
00000020: 5ed9 7bbc 6c11 c13d c417 58be 8876 63be
00000030: 5251 2cbd b435 bc3d 857d 543e 5b1a bb3d
00000040: fa23 303e f2e0 ff3d 8f3b 253d 1113 503d
00000050: 77ac bfbc 68a2 a7bd 5fd2 c83c 223f 94bd
00000060: 18c9 36be 609f ffbd 887a 9fbd 451d 54bc
00000070: df1a c1bd e7bf 253d 3ed2 f0bd b1e3 85bd
00000080: cc50 7c3c 7c76 b33d 8a8a 953d ed8f 7ebd
00000090: 34b2 0abc 4a3e fe3d f0df c43d 635c c83d
000000a0: 91e4 c8bd a831 653c afdf 973d 8ed5 013e
000000b0: 29b8 933d 824b f7bd 4c0d 2ebd ef60 c53c
000000c0: 6170 8e3d ad03 40bd a5fe 563d b417 063e
000000d0: 96aa 3abd cf9c 15bd 7b9a 05bd 090c 9ebd
000000e0: eecd 06be 5d4b 4bbe 95ae 02be bcda 083e
000000f0: be13 8e3d 05eb 16be 93f0 3dbd 9d2f d03d
00000100: aa46 363b b4f2 f93d bb71 03bd 4258 8e3b
00000110: 94a0 fd3c 0a4c 28bd 82d7 143d bddf 15bc
00000120: 16c8 a33c 78ce 4abc 1f12 f3bd 0571 ea3d
00000130: c6c8 8d3d 8b0f 8c3a d387 e6bb d9b3 593e
00000140: b798 3bbd eb82 403d 2b31 0abe 3307 b4be
00000150: 8d35 8fbd 4e40 a83c c9b2 7a3d 63c7 703d
00000160: a05b 04be b2f6 72bd faa6 b93c 53ff babd
00000170: 81aa 9a3c 2a1a bfbc 2b86 4abc 734f 7a3d
00000180: 3848 733c ae35 3c3e b996 cdbd 2205 93be
00000190: 37a1 c1bb 34e1 30bd 8e20 b9bd 5f5e 39bd
000001a0: 5d4f 79bd 6eee e2bc bb95 44be 71f2 b7bd
000001b0: 8d2d 51be bb7c b9bd 1760 253e a819 c6bd
000001c0: 35b5 b03d 9b50 173e 5fa8 043e f171 65bd
000001d0: ded3 e9bc d9dc 89bd a5f8 8abd eb90 acbc
000001e0: a994 39bd 2d76 723c 5d3d 7fbd 533e 12be
000001f0: a9da 99bd 80a7 823e 2764 583e 9141 453c
00000200: 8ab9 0d3e 37d8 b03d aa29 093e fc40 7c3d
00000210: 30ba b9bd bd1d 123e 6953 563e 0b59 153e
00000220: 141f 3ebe 3f57 0f3e 762c 9c3d e0da afbd
00000230: b8dd 27bd e3a1 debd 066a 4dbd 7a71 bfbd
00000240: d0b1 13be d966 15bd bfea cd3c 7dcd 933d
00000250: 0f10 013e ee57 5f3d 3044 e43b 4876 933e
00000260: 1c63 5c3e ec73 a33e b171 153e 9b2c 4aba
00000270: b00e d83c 8120 91bd 1fba 0abd 0490 fb3d
00000280: 44d4 873e 1e89 34be f344 93bd ec8d 973d
00000290: f108 27be 5cc1 e4bc eca7 76be 851e 823d
000002a0: 548f f63c 073b 083e 2ad8 94bc 4090 f3bd
000002b0: 4dd3 113d e4ea ed3d f7e7 de3d 2e24 bf3d
000002c0: 4219 c33d 2893 7abd 6d73 62bd 73ab 3abd
000002d0: 538c 683e 61c4 bebd c763 59bd 33f6 bd3c
000002e0: 21c2 ff3d c88f 65bd 4352 e0bd 5f01 f83b
000002f0: 17ba c03d 6a72 e4bd 19cc d3bc d7d6 a7bd
00000300: c287 263d 5d34 acbd 7f19 15be 404a 563c
00000310: b80e ca3c a03a 9a3d ecc2 89bb 6732 77bd
00000320: ec89 783c 7f35 03be 1c64 f3bd 55df 03bd
00000330: 6dd1 15bd 337b 75bd 4286 d7bd a310 903d
00000340: 9b88 8d3e 97bf 5b3e 1c78 1dbe 9a78 febd
00000350: 7052 143d 6c6b 87be fa79 69be 23a8 0fbe
00000360: 6095 2a3d e0d1 143c 286c 12be f2b2 cbbd
00000370: fca7 3bbc 44cd 02bd 20fe 243d 889e f8bd
00000380: d6de 88bb b070 e9bd d6a0 bcbd a3d5 ef3c
00000390: 12d2 a63d f208 6e3e 7382 c3bd c648 52bd
000003a0: 955e 803e cbec db3e b8eb b23e 7038 cabd
000003b0: 1e4a dcbc fe0a 143d b1fd 05be 3284 22be
000003c0: bbae 5fbc 24c8 1f3e f352 4abd 8e8b 59be
000003d0: 88f2 d3be 3882 84bd 64d9 03bd 34e5 ac3a
000003e0: 9138 0ebc b337 8a3e a284 4ebe dba3 ccbd
000003f0: 9e1f 7ebe 504d 4dbe ce0d e3bd 618c d7bc
-0.12064664 -0.113825284 -0.1752171 -0.17795053 -0.061546393 -0.17701127 -0.14524348 -0.061103664
-0.015371649 0.09427151 -0.21102816 -0.22213185 -0.04206974 0.091899306 0.20751007 0.09135886
0.17201224 0.12494077 0.040340003 0.050799433 -0.023397667 -0.081852734 0.024514375 -0.07238604
-0.17850149 -0.1248157 -0.07787043 -0.0129464315 -0.094289534 0.040466215 -0.117588505 -0.06537569
0.015400123 0.087628335 0.07301815 -0.062148977 -0.0084653385 0.124142244 0.09613025 0.09783246
-0.098092206 0.01398889 0.07415711 0.12679121 0.0721286 -0.12074949 -0.04249315 0.024094073
0.06955028 -0.046878505 0.05248894 0.1309498 -0.04557284 -0.036526497 -0.032618027 -0.07717139
-0.13164493 -0.19852968 -0.1276191 0.1336469 0.06937359 -0.1473809 -0.046372008 0.101653315
0.0027813115 0.12204495 -0.032090884 0.0043440172 0.030960359 -0.04108814 0.036338337 -0.009147582
0.01999287 -0.012378328 -0.11868691 0.11447338 0.0692306 0.0010685785 -0.0070352345 0.21260013
-0.045799937 0.046999853 -0.13495319 -0.35161743 -0.06992636 0.020538475 0.06120566 0.0587839
-0.12925577 -0.0593173 0.022662628 -0.091307305 0.01888013 -0.023327906 -0.01236109 0.061110925
0.014848761 0.18379852 -0.10038514 -0.28714854 -0.005909111 -0.04318352 -0.090394124 -0.045256015
-0.060866702 -0.027701583 -0.19197743 -0.08981789 -0.20427532 -0.090569936 0.16149937 -0.09672862
0.086283125 0.14776842 0.12954853 -0.056016866 -0.028543409 -0.067315765 -0.067857064 -0.021065196
-0.04530779 0.014798683 -0.06231438 -0.14281587 -0.07512409 0.25518417 0.21131955 0.012039558
0.13840309 0.0863499 0.133948 0.06158541 -0.090687156 0.14269157 0.20930256 0.14584748
-0.18566543 0.13998125 0.07625668 -0.08586669 -0.04098293 -0.10870721 -0.05014994 -0.09347816
-0.14423299 -0.036475036 0.02513635 0.07216928 0.12603782 0.054527216 0.0069661364 0.2880118
0.21522182 0.3192438 0.14594151 -0.0007712335 0.026374191 -0.07086278 -0.033868905 0.12283328
0.26529133 -0.17630431 -0.071908854 0.07400116 -0.16312005 -0.027924232 -0.24087495 0.063534774
0.030097641 0.13303767 -0.018169481 -0.11892748 0.035601903 0.116170675 0.108840875 0.093330726
0.09526302 -0.061175495 -0.05528586 -0.045573663 0.2270978 -0.093148 -0.05307367 0.023188686
0.12488199 -0.056045324 -0.1095319 0.007568523 0.09410494 -0.11154635 -0.025854157 -0.08195274
0.040656812 -0.08408425 -0.14560507 0.013079226 0.024665222 0.07530713 -0.0042041447 -0.0603508
0.015169602 -0.12813376 -0.11884329 -0.032195408 -0.036576677 -0.059931945 -0.105236545 0.07034423
0.27643284 0.21459804 -0.1537785 -0.12425347 0.03621143 -0.26449144 -0.22800437 -0.14028983
0.04164636 0.009083241 -0.14299071 -0.099462405 -0.011453625 -0.031934038 0.040281415 -0.121396124
-0.0041769547 -0.113984466 -0.092103645 0.029276675 0.081455365 0.232456 -0.095463656 -0.051338933
0.2507216 0.42954096 0.34945464 -0.09874046 -0.02689081 0.036143295 -0.13085057 -0.15870741
-0.013652499 0.15603691 -0.049395513 -0.21244642 -0.41395974 -0.0647015 -0.03218974 0.0013190866
-0.008680479 0.2699562 -0.20167783 -0.099921905 -0.24816748 -0.20049024 -0.110866174 -0.026312055

bias f4 [120]
00000000: 098f 81bd aee5 73bd bf63 04bc d940 e53c
00000010: fb97 343c b228 0b3e fec0 5e3d 4d46 4ebd
00000020: 5894 babb 048a 693d 10bd 14bc 99c0 ae3d
00000030: 4efd efbd 7788 76bc 52e8 163c 89ca 763b
00000040: 9824 aa3c da60 9e3c 58b5 dd3c 858e 5e3d
00000050: 818c 2bbd 08b5 ccbc af1b 3ebd 4ff0 8fbd
00000060: 19ce 643d 5337 93bd 036b 60bd 9364 f43c
00000070: 5d34 3ebd 3725 073d 6226 96bb 9af8 113d
00000080: 35ff 1c3d 2e8d acbd 962f 3f3b ff43 3f3d
00000090: 1bc2 46bd 86eb 4b3d 24e1 3a3c 9014 97ba
000000a0: 5a26 7cbd b0c5 d1bc 42ba b0bd 76a7 c63c
000000b0: 826f 08be 7a61 ae3c caa1 ff3c e119 933c
000000c0: be4a 12bd 211b 023e b5f1 51bd 1981 4b3d
000000d0: 18c6 a33d e0b6 2d3d 6444 e93a b088 46bd
000000e0: 0917 aabd 3dd9 aa3c fcca c13c 1f86 053e
000000f0: fe4b d3bd edc4 dfbc 2ea1 2f3d 04f0 7f3d
00000100: a258 133d 60c1 9bbc b0a5 17bd fb0d 33bd
00000110: 8160 c43d f690 003d 1c14 02bd 1dfe f83c
00000120: c915 ecbd 90dd 843b c576 223c 871a 8ebd
00000130: 9240 bc3d c304 5a3d 2c37 5cbd 11f4 38bd
00000140: 1a36 94bb 196c ddbc f02a c2bb 3ea6 753d
00000150: 8942 7e3c 8c96 90bd 37d0 d63d af06 46be
00000160: 5638 553d 6506 e83d c4d7 54bd 914b 17be
00000170: 98d4 89bc e8ae 4cbd 1b81 77bd d8f5 643d
00000180: 8e0b f23d bf8a 33be 5f9e 55bd 127b ad3d
00000190: b6b6 15bd c422 3d39 6c03 9bbd 9a64 493c
000001a0: af35 343c 4b21 493d 49bb f63c d4c0 e8bc
000001b0: 882e 473d 8bbd 493d 517c ae3a d5ca 123e
000001c0: 594c fdbd 9a4c 1bbd 5b3e 9ebd 456f 51bd
000001d0: 60e3 8f3c 8287 e3bc 3780 fa3d 9007 12bb
-0.0632611 -0.05954521 -0.008080422 0.027985023 0.011022563 0.13589743 0.05438327 -0.050360013
-0.0056939535 0.057016388 -0.009078279 0.08532829 -0.11718236 -0.015047184 0.009210663 0.0037657341
0.020769402 0.019333292 0.02706401 0.054335136 -0.04188204 -0.024988666 -0.04641312 -0.07028257
0.055860613 -0.07188287 -0.054789554 0.029833114 -0.046436656 0.032994475 -0.0045822123 0.035637476
0.038329322 -0.084253654 0.002917265 0.046695706 -0.048524957 0.04978516 0.011406217 -0.0011526514
-0.061560012 -0.02560696 -0.08629276 0.024249773 -0.13323787 0.021286715 0.031205077 0.017956676
-0.03571581 0.12705661 -0.0512559 0.049683664 0.07996768 0.04241073 0.0017796871 -0.0484702
-0.08305175 0.02085554 0.02365636 0.13039444 -0.10317229 -0.027315581 0.042878322 0.062484756
0.0359732 -0.019013107 -0.037023246 -0.043714505 0.09588719 0.031388246 -0.03175746 0.030394608
-0.11527593 0.0040547326 0.009916012 -0.069386534 0.09192003 0.053227197 -0.053763554 -0.045154635
-0.004523051 -0.027029084 -0.0059255287 0.059972994 0.015518793 -0.070599645 0.104889326 -0.19338487
0.05205568 0.11329345 -0.051963583 -0.1477492 -0.016825005 -0.04997149 -0.06042586 0.055898517
0.1181861 -0.17533396 -0.052152988 0.084707394 -0.0365512 0.00018037396 -0.07569012 0.012292052
0.010999127 0.049104016 0.030118601 -0.02841226 0.04862836 0.049253028 0.0013312196 0.14335187
-0.12368078 -0.03791485 -0.07726737 -0.051131506 0.017564476 -0.027774576 0.12231486 -0.002228234

weight f4 [84, 120]
00000000: ebc8 be3d a1b0 8a3d d0db 86bc d6f4 acbd
00000010: 280f 743e 028f 263e ecf7 313e b47b 45bd
00000020: 7cc1 56be 8781 913d 3f05 393d 14b3 bbbc
00000030: 50d6 2d3e e527 a1bd 3bea 683d c6bd 0b3b
00000040: 9632 c3bc 7618 bf3d 1cdf b13d a60b 7fbd
00000050: aaa9 993d 5f2c 3fbe 6cdc 133e b9e8 14bc
00000060: 5f7b adbc 8ad7 ea3c a0f2 97bd a65e 31ba
00000070: c48d c93c b9c3 96be eba4 2b3d 6ad5 32be
00000080: 9ce2 61bd 5e65 cdbd f69f 023e fecb bfbe
00000090: a2b0 67bd 8a5e d4be 9b3d 8c3d e0f4 883d
000000a0: 5806 0f3d 89f7 283e 4cdf a73d 61a3 013e
000000b0: 9620 0e3e 3d2b 7f3d ebc1 c53d 2f8b f1bd
000000c0: bb38 613e 683c 77bd f366 c93d 27e3 803e
000000d0: 1987 313e ef8e bcbd a352 9fbd cba8 0b3c
000000e0: eb46 573c 06ef 223e abfb 4cbc 4b71 efbd
000000f0: b96a 91bd 0960 dfbd 1c8d c23d 8f94 a43c
00000100: 4830 bd3d be8a d8bc ca73 40bc 4582 61bd
00000110: b85d 143d b450 193c 22be ac3d bb19 053e
00000120: 8b06 013b 6ad8 02bd e673 6e3d 127b 4d3d
00000130: 258c 9d3c 60d7 823e b84c 8cbd f48f 6c3e
00000140: 66f6 bc3d 8df3 1abd 19c3 963c 6780 4bbe
00000150: 25af ff3d dd92 f73d 173a 443e 0aef 403c
00000160: 11b1 083e 554b 93bc 0a11 56bd 7d4d c73d
00000170: 6ca2 c8bc 9141 94bd c9bb 9cbc e77b b8bd
00000180: dc39 98be ffc9 083e f77d 79bd 69b8 50be
00000190: aa74 7b3c 2bcc 273e 38f1 d23c 3284 b6bd
000001a0: 9dc1 7ebd b6a7 d93c a724 163e 155a 41bd
000001b0: 6908 c73d 82f4 b8bc 0cce ea3d 449e b9bd
000001c0: f612 bb3d 72e2 c4bd 8140 fabd 28fb 07bd
000001d0: 4768 a4bd 6123 d5ba 2eb9 603d 73c8 ab3d
000001e0: 5f02 a93d 0bd7 933d c033 d6bd 9aca ca3d
000001f0: 1610 31bd 839c 22be 5d7d ecbd d5d8 c13c
00000200: 37de b4be 0d90 16be 0c72 3dbe 75fc 3abe
00000210: 7611 8bbe ba36 2fbe a34a 273e aa2f 80bc
00000220: 75ae b1bb dcc3 723d 9ad7 5abe 0149 96bd
00000230: b2d0 a73d 2b61 e6bd 37e3 a73d 788d c83c
00000240: a497 5b3d 6d63 79bc f378 e6bc 5095 7a3d
00000250: 78ff 293d 42f4 1abe 86f9 b6bd 5eaf 96be
00000260: 2979 c9bd 14ae c5bd d98e bfbd 5793 00be
00000270: 1ea2 5e3d e944 80be 1ee8 ab3d e2f2 773d
00000280: 2469 b8bd ab2f 98bd 8289 123c 2c51 9ebd
00000290: bbab 7cbd c15c 51be 8d93 073e 2d02 2f3d
000002a0: f62e 4b3e ca01 2abe 42f1 473d 828d 47be
000002b0: f69f 813e ebd2 3bbe cecc 123d cfa1 c3bd
000002c0: 2646 1d3c 1f92 efbc 4a3a 333d 47b3 04be
000002d0: 1a1f 753d d2ae 00be 6f62 ccbc 7461 c4bd
000002e0: 512a 8e3d 9367 48bd 139f 6fbd 240d bbbd
000002f0: 5d27 8f3d 2fdc 0ebe 1ca2 933d e1ad 62bd
00000300: bd22 25be 27c8 78bd 613b a93c 5354 d43b
00000310: f4c5 8e3c 1664 023c 443c a23c 78a2 5c3e
00000320: 04fc 89bd 6252 8c3c 08f1 9bbe 3f23 b3bd
00000330: f5c7 3abe f92c b8bd abd0 323d 6576 fabd
00000340: 6637 8abe 1233 533d a3e9 9e3d 5273 a6bd
00000350: 454a 793d 4c8c 5bbd c77e f63c f893 11be
00000360: 6845 8abc 871c 50be c8c6 53bd 8e95 80bd
00000370: 1e03 bd3c b0de 52bd a8ce e5bd 471e 79be
00000380: 7b49 fc3d 8e33 c9bc 5ad6 9c3e 18f5 58be
00000390: dcf2 94bd 5913 40be 9165 e1bd b19d f2bd
000003a0: 178c dcbd e237 cbbc 0dd2 083e 06c4 733d
000003b0: 249e d03c 6b58 86bd 761d bebd 2bd2 503e
000003c0: 5dcc 2dbd 99be 9d3b 5c18 aa3d 630c 6c3d
000003d0: b990 f1bc 5807 ffbc 3f64 9ebd bc59 b6bd
000003e0: ecb6 3a3e 3e20 1b3e 23f9 81bd 7005 5b3e
000003f0: ef89 73bd fed6 453e ef03 673d f2fd aebd
0.09315666 0.067719705 -0.016462237 -0.08445136 0.23833907 0.1626549 0.17379731 -0.048213676
-0.20972246 0.071047835 0.04517102 -0.02291254 0.16976285 -0.078689374 0.056864005 0.002132283
-0.023827832 0.093308374 0.08685133 -0.06226697 0.07503064 -0.1866927 0.14439553 -0.0090886885
-0.021176992 0.02866723 -0.07419324 -0.0006766118 0.024603732 -0.294462 0.041905325 -0.17464224
-0.055147752 -0.100291 0.12756333 -0.3746032 -0.056564935 -0.41478378 0.06847688 0.06687331
0.03491816 0.16500677 0.081968874 0.1265998 0.13879618 0.062297095 0.096561275 -0.11794125
0.21994297 -0.060360342 0.09834089 0.25173303 0.17336692 -0.0920695 -0.077794336 0.00852413
0.013139467 0.15911493 -0.012511174 -0.11691531 -0.07100434 -0.10906989 0.09499571 0.02009037
0.092377245 -0.026433345 -0.011746356 -0.055055875 0.03622219 0.00935762 0.084347025 0.12998097
0.0019687738 -0.03194467 0.058215998 0.050166197 0.019231865 0.25554943 -0.068505704 0.23101789
0.09226684 -0.037829924 0.018403577 -0.198732 0.12484578 0.12088559 0.19162785 0.011775741
0.13348795 -0.017980257 -0.052262343 0.097315766 -0.024491511 -0.07239068 -0.019132512 -0.090080075
-0.29731643 0.13358305 -0.060911145 -0.20382847 0.015347639 0.16386478 0.025749788 -0.08911933
-0.062196363 0.026569229 0.1466242 -0.04720505 0.09718401 -0.022577528 0.114650816 -0.0906339
0.09134476 -0.096135035 -0.122193344 -0.033198506 -0.08027702 -0.0016261154 0.0548641 0.08387842
0.082524054 0.072187506 -0.10459089 0.099019244 -0.04322823 -0.15880017 -0.11547349 0.023662964
-0.35325786 -0.14703389 -0.18500537 -0.18260367 -0.2716176 -0.1711072 0.16337065 -0.015647728
-0.005422408 0.059268817 -0.21371308 -0.07338143 0.08194102 -0.11249002 0.08197635 0.02448152
0.053611413 -0.015221459 -0.028133845 0.06117755 0.0415034 -0.1513224 -0.089343116 -0.2943067
-0.098375626 -0.096523434 -0.09353418 -0.12556206 0.054353826 -0.25052574 0.08393882 0.060534365
-0.09004429 -0.07430967 0.008943917 -0.07730326 -0.061687212 -0.20445539 0.1323988 0.042726684
0.19842133 -0.16602245 0.048814066 -0.19487575 0.25317353 -0.18342178 0.03583985 -0.09552347
0.009599244 -0.02924448 0.04375676 -0.12959014 0.059844114 -0.12566689 -0.02494928 -0.095889
0.06941665 -0.0489269 -0.058501314 -0.09133366 0.0698993 -0.13951181 0.07208654 -0.055341605
-0.16126533 -0.060737755 0.020658197 0.006479779 0.017428376 0.007958433 0.019804128 0.21546352
-0.06737521 0.017129127 -0.3045733 -0.08746957 -0.1824034 -0.08992953 0.043656033 -0.12229613
-0.2699539 0.051562376 0.077594064 -0.08127464 0.060861845 -0.053600594 0.030089749 -0.14216602
-0.016878799 -0.20323382 -0.051703244 -0.06278525 0.023072775 -0.051481903 -0.11221057 -0.24327956
0.12318703 -0.024560716 0.30632287 -0.21187246 -0.07272884 -0.1875738 -0.110057004 -0.118464835
-0.107689075 -0.02480692 0.13361378 0.059513114 0.025466032 -0.06559833 -0.09282963 0.20392673
-0.042431224 0.004813981 0.083054274 0.057629 -0.029487954 -0.031131431 -0.07733964 -0.08903834
0.18233842 0.15149018 -0.06346347 0.21388793 -0.059457716 0.19320294 0.056400236 -0.0854453

bias f4 [84]
00000000: 2093 953d 2cd0 733d d12c 733e acdf a1bd
00000010: 107b 4a3e 0839 9d3d 0859 ae3d e780 903e
00000020: 2ea4 c13d 527f 543e e6a9 403e 39f1 303e
00000030: 6a9f 8e3d 6950 663d 142b 663d 2469 cd3c
00000040: 3e66 ed3d eb38 283e b18b 5f3d 8ede dc3d
00000050: b4b7 5f3e 6d94 053e 5056 ebbc 6d82 0c3e
00000060: 74ea a93d 3ecc fd3d 6f5e 33bd 222d 143e
00000070: d0f5 8a3e a7e1 d53d 46e6 7f3d 2730 3c3d
00000080: 15e7 243e 7467 dc3d f360 bf3d 0593 a2bc
00000090: 88b8 a33d 2f4a 0d3d fea9 d5bc 3946 e93c
000000a0: be57 1f3e c09e 2cbd 6490 2c3e af07 083d
000000b0: c8e9 053e 293d 803d a1b3 56bd 6da2 01bd
000000c0: 1a55 88bd 32fe 9c3d ff4d 933d fd66 683c
000000d0: 7726 5e3d 19fc e23d cf8a 3f3e 0e7b 4d3e
000000e0: 74a6 963b eb14 633c 8b57 9fbd e1f1 363d
000000f0: 2fa4 d9bd 4d81 bc3d a777 063e 0bad 0abe
00000100: bc27 14bc 231a 90bd 2419 613e 6af6 63bd
00000110: 20c7 253e 1b56 82bb 0c25 3c3e b221 c93d
00000120: 72a6 323d e2e2 e83c 445b 973d 22b0 043e
00000130: 043e bb3d 5250 e53d 4698 82be ee03 f93d
00000140: ea78 7fbb beb8 cbbc 467d fc3c a899 eb3c
0.073034525 0.0595247 0.23747565 -0.0790399 0.19773507 0.076768935 0.08513075 0.28223345
0.09455143 0.20751694 0.18814811 0.17279519 0.069639996 0.05622903 0.056193426 0.025074549
0.11591767 0.16427962 0.05457658 0.107846364 0.21847421 0.13044901 -0.02872768 0.13721628
0.082966715 0.12392472 -0.04379123 0.14470342 0.27140665 0.104434304 0.062475465 0.04594436
0.16103776 0.107619196 0.093446635 -0.019845495 0.07994181 0.034494575 -0.026082035 0.028475868
0.15560815 -0.042143583 0.16851956 0.033210453 0.13077462 0.062616654 -0.0524174 -0.031649042
-0.06656857 0.076656714 0.07192611 0.014184711 0.0542359 0.1108324 0.18705295 0.20066473
0.0045974795 0.013859968 -0.07780369 0.044664267 -0.10627019 0.0920435 0.13131581 -0.13542573
-0.009042677 -0.07036235 0.21982247 -0.05565492 0.16189241 -0.0039775497 0.18373507 0.0982088
0.043615766 0.028428499 0.073904544 0.12957814 0.09142688 0.111969605 -0.255068 0.12158953
-0.0038981983 -0.024868365 0.030821454 0.028759792

weight f4 [10, 84]
00000000: defd 6fbc 510a 9dbe 7ab6 bb3a 4cce 27bd
00000010: f788 debc 2a70 d13d cc8f 7fbe 62f6 143e
00000020: daa7 de3d 94f3 28be d814 d93d 855e 59be
00000030: f8ba a2be 68e0 593c e233 1a3e 74ab aebe
00000040: 3661 27be 96a0 f2bd 468f 203e 5b93 90be
00000050: 6c67 933c 8872 88be 479f 34be 276b 713e
00000060: 7fb6 7f3b 53ac 5ebe c2c4 c23c b186 353e
00000070: 00c1 76bc 9632 c8bb fbf3 b2bd 9251 063e
00000080: 7d1e ea3d 8f90 1c3e 77c5 68be fe65 1bbe
00000090: dca1 a0bd 3786 3ebe 26fe 1abd 5e3d 843d
000000a0: 510b 81bc a246 3dbe 13c1 87be 5b75 86bd
000000b0: 31cb 053d 8eb5 0d3e 41cc 3bbe 634b 78be
000000c0: a472 73bd 589a 06be 3f86 2abe e4ce 9e3d
000000d0: 5518 063e e8d8 bbbd 9038 e73c a4da abbe
000000e0: b94f fdbc 9d18 d43d bb89 35be 1814 c23d
000000f0: bbc7 9c3c eda0 c8bd 7654 8a3e 5654 b2bd
00000100: 96ad 2cbe 0c78 163e 990d f3bd a1e2 dc3d
00000110: 9002 81bd 2c71 053e 9f24 8ebe f96c 153e
00000120: e14c 50be 4368 3b3d badb 763c 3a55 083e
00000130: d505 13bc 719e 213e bc09 f13c e4d2 573e
00000140: a43a eabd eead 7abd 1c48 dfbd eb64 003e
00000150: b628 2abe 2bca 40bc 5f97 a7bd 024c 04be
00000160: a308 4a3e 3150 62be 4830 38be 3e31 d2be
00000170: 6a7a 4dbe 73e9 653e 9649 823e 5351 253e
00000180: 1374 b5bd c75f 7cbb ce1e 17be cee9 a4bc
00000190: d5f8 2a3e 6e50 06be 09bb 3e3e f942 5a3d
000001a0: 60b5 f73d 96c7 4d3e 808c 143e c03b 053e
000001b0: e01c 81bd 9678 bc3d 7674 95be 2d27 a6be
000001c0: 2a6b a2bd 9a9b 653e dcf2 a2bd 1a72 7abe
000001d0: e02d 253e fa1b ecbd 7c8f 973d 2a54 c3be
000001e0: cbd8 0cbe 7584 37bd d537 a0be 80c1 3dbe
000001f0: 7733 433e 9b95 20be 85a0 f33d fb28 48bd
00000200: 2506 063e 4627 d23d bde9 033e 0389 0c3e
00000210: dd0f 0c3e d0ce 19be 22c7 36be ca81 643d
00000220: 464e 7abe 5378 9f3d 2921 af3d a2a8 963d
00000230: 0c66 9f3d f25f 29be db00 8cbe 2083 71be
00000240: a259 eabc d834 863e fd0b d0bd 125f 6ebe
00000250: ffb6 b8bd a626 2cbe 34be 013e cd67 d33c
00000260: ee64 d53c b34c 2abe c226 33be c754 e4bd
00000270: 5ba6 debd 4f29 84be 1815 6a3d 0493 823d
00000280: e860 60be 95e6 32be ed59 973b 1aa4 d3bd
00000290: 8e10 b5bd 7ece 593d a640 50be e3ad 9d3d
000002a0: 3bca dbbd 80ad 87be b113 e33d 5aca b23d
000002b0: 430b 1cbe 0ec5 97bd 56b8 3a3c 69f9 84be
000002c0: 8ab5 87bd a524 1cbe d431 03be 61b7 bf3c
000002d0: 5cbc c8bd 4947 593d aaed 033e ec1e 8c3d
000002e0: 15ef d53d 8227 073d d23b a9bd ff94 96bc
000002f0: 2900 63be 7e7d e1bd 2816 e13d 1572 40be
00000300: 167f 2b3e ec94 433e 402c 063e 4ae1 3e3e
00000310: 21ee 48be f373 0abe dd39 debc 3ae4 003c
00000320: b08b 993d 53b8 463d 5646 a03b 06a3 073e
00000330: 6945 92be 0eee 333e 03f8 723e 7d0b 24be
00000340: faf6 333e d0a8 813b 6b71 663d 088f 61be
00000350: 5da9 ed3d 7a6a fa3d cd91 6d3d 57f2 bb3d
00000360: b904 9dbd f921 2b3e b614 07be 2fc9 133e
00000370: eb98 84be 547a 1fbe c8da c93d 9df6 27be
00000380: f272 f83d 438b 57be 472e b0bd 7cf1 6abc
00000390: 5a7c 8cbd 83bb a1be 1bdb 3d3e 4784 20be
000003a0: e247 00bd d3ba a93d ce28 21be 93f8 3bbd
000003b0: 7b02 dd3d 27d7 103e 8a5b 77bd 5fbf ad3d
000003c0: 48bc 62bd b81e e8bd 885b 3b3d 3601 b63d
000003d0: 6f32 acbd 4b6a 2bbe 1613 a13d a0d0 0abc
000003e0: 278d 293d 801e 223e 6b4b 653d 01e8 2dbe
000003f0: 6206 d63d 1db3 65bd fdeb 21bc 3abf 0d3d
-0.014647929 -0.30671933 0.001432135 -0.040968224 -0.02716492 0.10226472 -0.24957198 0.14547113
0.10871859 -0.16499168 0.10599679 -0.21227463 -0.3178327 0.0132981315 0.15058854 -0.34115183
-0.16345677 -0.118470356 0.15679654 -0.28237423 0.017993651 -0.2664988 -0.17638884 0.23576032
0.0039018688 -0.21745424 0.023775462 0.17727162 -0.015060663 -0.006109546 -0.08737942 0.13117054
0.114315964 0.1528952 -0.22731577 -0.15175626 -0.07843372 -0.18605886 -0.03784003 0.06457017
-0.015752466 -0.18483976 -0.2651449 -0.065653525 0.03266448 0.13838789 -0.18339635 -0.24247508
-0.0594355 -0.13144815 -0.16652773 0.07754305 0.1309522 -0.09172231 0.028225213 -0.33565247
-0.030921804 0.10356257 -0.17728321 0.09476489 0.019138208 -0.09796319 0.27017564 -0.08707492
-0.16863093 0.14694232 -0.11867828 0.107854135 -0.06299317 0.13031453 -0.27762315 0.14592351
-0.20341827 0.04575373 0.015067035 0.13313761 -0.008973558 0.15783097 0.029423587 0.21076542
-0.11436966 -0.06120103 -0.10902426 0.12538497 -0.16617092 -0.011766951 -0.081831686 -0.1291962
0.19729857 -0.22100903 -0.17987168 -0.41053194 -0.20066229 0.22452335 0.25446767 0.16144304
-0.0886003 -0.0038509236 -0.14757845 -0.020131018 0.16696484 -0.13116619 0.18626036 0.053286526
0.120951414 0.20095667 0.14506721 0.13011074 -0.063043356 0.092026874 -0.29190415 -0.32451764
-0.07930596 0.22422639 -0.07956478 -0.24457589 0.16130781 -0.115287736 0.07400414 -0.3815015
-0.13754575 -0.044804055 -0.31292596 -0.18530846 0.19062601 -0.1568207 0.11895851 -0.048867207
0.13088281 0.10261397 0.12882133 0.13724141 0.13677926 -0.15020299 -0.178494 0.05578784
-0.24443921 0.07786622 0.08551247 0.07356383 0.07783136 -0.16540506 -0.27344403 -0.23585176
-0.028607193 0.26212192 -0.101585366 -0.23278454 -0.09019279 -0.16811618 0.12670213 0.025806332
0.026049104 -0.16630821 -0.17495254 -0.111489825 -0.108715735 -0.25812766 0.057149023 0.06375697
-0.21911967 -0.17470773 0.0046188743 -0.10334034 -0.08841048 0.053175442 -0.20337161 0.07699182
-0.10731932 -0.26499557 0.1108774 0.08730002 -0.15238671 -0.07410632 0.011396488 -0.25971535
-0.06626423 -0.15248354 -0.12811977 0.023402872 -0.09801552 0.0530465 0.1288363 0.068418354
0.10445992 0.032996662 -0.08263363 -0.018381594 -0.2216803 -0.11010264 0.10990554 -0.18793519
0.16747698 0.19099778 0.13102818 0.18640628 -0.19622089 -0.13520794 -0.0271272 0.007866913
0.074973464 0.04851563 0.004891197 0.13245782 -0.2856858 0.1757128 0.23727421 -0.16020007
0.17574683 0.0039568916 0.056260508 -0.22027218 0.11604569 0.1222734 0.058000375 0.09177082
-0.076669164 0.16712178 -0.13191494 0.14432214 -0.25897917 -0.15574008 0.09856182 -0.16402669
0.12131299 -0.21049218 -0.08602577 -0.014339801 -0.06859656 -0.31588373 0.18540613 -0.1567546
-0.031318553 0.08287587 -0.15738222 -0.045891356 0.10791489 0.14144574 -0.060390033 0.08483767
-0.05535534 -0.11333984 0.045741588 0.0888695 -0.08408057 -0.16739766 0.078649685 -0.008472592
0.04139438 0.15831947 0.055980127 -0.16983034 0.10450436 -0.05607902 -0.009882924 0.034606196

bias f4 [10]
00000000: 25b7 b53c 6644 703c b5bb 87ba f828 1f3d
00000010: 03a6 b1bc 36b3 483d a827 02be 69ec ddbd
00000020: 0356 e83d e106 793d
0.022182057 0.014664745 -0.0010355624 0.03885743 -0.021685606 0.048999034 -0.1271044 -0.10836107
0.113445304 0.060797576
